Model: "inception_resnet_v2"
__________________________________________________________________________________________________
Layer (type)                    Output Shape         Param #     Connected to                     
==================================================================================================
input_6 (InputLayer)            [(None, 299, 299, 3) 0                                            
__________________________________________________________________________________________________
conv2d_853 (Conv2D)             (None, 149, 149, 32) 864         input_6[0][0]                    
__________________________________________________________________________________________________
batch_normalization_813 (BatchN (None, 149, 149, 32) 96          conv2d_853[0][0]                 
__________________________________________________________________________________________________
activation_852 (Activation)     (None, 149, 149, 32) 0           batch_normalization_813[0][0]    
__________________________________________________________________________________________________
conv2d_854 (Conv2D)             (None, 147, 147, 32) 9216        activation_852[0][0]             
__________________________________________________________________________________________________
batch_normalization_814 (BatchN (None, 147, 147, 32) 96          conv2d_854[0][0]                 
__________________________________________________________________________________________________
activation_853 (Activation)     (None, 147, 147, 32) 0           batch_normalization_814[0][0]    
__________________________________________________________________________________________________
conv2d_855 (Conv2D)             (None, 147, 147, 64) 18432       activation_853[0][0]             
__________________________________________________________________________________________________
batch_normalization_815 (BatchN (None, 147, 147, 64) 192         conv2d_855[0][0]                 
__________________________________________________________________________________________________
activation_854 (Activation)     (None, 147, 147, 64) 0           batch_normalization_815[0][0]    
__________________________________________________________________________________________________
max_pooling2d_16 (MaxPooling2D) (None, 73, 73, 64)   0           activation_854[0][0]             
__________________________________________________________________________________________________
conv2d_856 (Conv2D)             (None, 73, 73, 80)   5120        max_pooling2d_16[0][0]           
__________________________________________________________________________________________________
batch_normalization_816 (BatchN (None, 73, 73, 80)   240         conv2d_856[0][0]                 
__________________________________________________________________________________________________
activation_855 (Activation)     (None, 73, 73, 80)   0           batch_normalization_816[0][0]    
__________________________________________________________________________________________________
conv2d_857 (Conv2D)             (None, 71, 71, 192)  138240      activation_855[0][0]             
__________________________________________________________________________________________________
batch_normalization_817 (BatchN (None, 71, 71, 192)  576         conv2d_857[0][0]                 
__________________________________________________________________________________________________
activation_856 (Activation)     (None, 71, 71, 192)  0           batch_normalization_817[0][0]    
__________________________________________________________________________________________________
max_pooling2d_17 (MaxPooling2D) (None, 35, 35, 192)  0           activation_856[0][0]             
__________________________________________________________________________________________________
conv2d_861 (Conv2D)             (None, 35, 35, 64)   12288       max_pooling2d_17[0][0]           
__________________________________________________________________________________________________
batch_normalization_821 (BatchN (None, 35, 35, 64)   192         conv2d_861[0][0]                 
__________________________________________________________________________________________________
activation_860 (Activation)     (None, 35, 35, 64)   0           batch_normalization_821[0][0]    
__________________________________________________________________________________________________
conv2d_859 (Conv2D)             (None, 35, 35, 48)   9216        max_pooling2d_17[0][0]           
__________________________________________________________________________________________________
conv2d_862 (Conv2D)             (None, 35, 35, 96)   55296       activation_860[0][0]             
__________________________________________________________________________________________________
batch_normalization_819 (BatchN (None, 35, 35, 48)   144         conv2d_859[0][0]                 
__________________________________________________________________________________________________
batch_normalization_822 (BatchN (None, 35, 35, 96)   288         conv2d_862[0][0]                 
__________________________________________________________________________________________________
activation_858 (Activation)     (None, 35, 35, 48)   0           batch_normalization_819[0][0]    
__________________________________________________________________________________________________
activation_861 (Activation)     (None, 35, 35, 96)   0           batch_normalization_822[0][0]    
__________________________________________________________________________________________________
average_pooling2d_4 (AveragePoo (None, 35, 35, 192)  0           max_pooling2d_17[0][0]           
__________________________________________________________________________________________________
conv2d_858 (Conv2D)             (None, 35, 35, 96)   18432       max_pooling2d_17[0][0]           
__________________________________________________________________________________________________
conv2d_860 (Conv2D)             (None, 35, 35, 64)   76800       activation_858[0][0]             
__________________________________________________________________________________________________
conv2d_863 (Conv2D)             (None, 35, 35, 96)   82944       activation_861[0][0]             
__________________________________________________________________________________________________
conv2d_864 (Conv2D)             (None, 35, 35, 64)   12288       average_pooling2d_4[0][0]        
__________________________________________________________________________________________________
batch_normalization_818 (BatchN (None, 35, 35, 96)   288         conv2d_858[0][0]                 
__________________________________________________________________________________________________
batch_normalization_820 (BatchN (None, 35, 35, 64)   192         conv2d_860[0][0]                 
__________________________________________________________________________________________________
batch_normalization_823 (BatchN (None, 35, 35, 96)   288         conv2d_863[0][0]                 
__________________________________________________________________________________________________
batch_normalization_824 (BatchN (None, 35, 35, 64)   192         conv2d_864[0][0]                 
__________________________________________________________________________________________________
activation_857 (Activation)     (None, 35, 35, 96)   0           batch_normalization_818[0][0]    
__________________________________________________________________________________________________
activation_859 (Activation)     (None, 35, 35, 64)   0           batch_normalization_820[0][0]    
__________________________________________________________________________________________________
activation_862 (Activation)     (None, 35, 35, 96)   0           batch_normalization_823[0][0]    
__________________________________________________________________________________________________
activation_863 (Activation)     (None, 35, 35, 64)   0           batch_normalization_824[0][0]    
__________________________________________________________________________________________________
mixed_5b (Concatenate)          (None, 35, 35, 320)  0           activation_857[0][0]             
                                                                 activation_859[0][0]             
                                                                 activation_862[0][0]             
                                                                 activation_863[0][0]             
__________________________________________________________________________________________________
conv2d_868 (Conv2D)             (None, 35, 35, 32)   10240       mixed_5b[0][0]                   
__________________________________________________________________________________________________
batch_normalization_828 (BatchN (None, 35, 35, 32)   96          conv2d_868[0][0]                 
__________________________________________________________________________________________________
activation_867 (Activation)     (None, 35, 35, 32)   0           batch_normalization_828[0][0]    
__________________________________________________________________________________________________
conv2d_866 (Conv2D)             (None, 35, 35, 32)   10240       mixed_5b[0][0]                   
__________________________________________________________________________________________________
conv2d_869 (Conv2D)             (None, 35, 35, 48)   13824       activation_867[0][0]             
__________________________________________________________________________________________________
batch_normalization_826 (BatchN (None, 35, 35, 32)   96          conv2d_866[0][0]                 
__________________________________________________________________________________________________
batch_normalization_829 (BatchN (None, 35, 35, 48)   144         conv2d_869[0][0]                 
__________________________________________________________________________________________________
activation_865 (Activation)     (None, 35, 35, 32)   0           batch_normalization_826[0][0]    
__________________________________________________________________________________________________
activation_868 (Activation)     (None, 35, 35, 48)   0           batch_normalization_829[0][0]    
__________________________________________________________________________________________________
conv2d_865 (Conv2D)             (None, 35, 35, 32)   10240       mixed_5b[0][0]                   
__________________________________________________________________________________________________
conv2d_867 (Conv2D)             (None, 35, 35, 32)   9216        activation_865[0][0]             
__________________________________________________________________________________________________
conv2d_870 (Conv2D)             (None, 35, 35, 64)   27648       activation_868[0][0]             
__________________________________________________________________________________________________
batch_normalization_825 (BatchN (None, 35, 35, 32)   96          conv2d_865[0][0]                 
__________________________________________________________________________________________________
batch_normalization_827 (BatchN (None, 35, 35, 32)   96          conv2d_867[0][0]                 
__________________________________________________________________________________________________
batch_normalization_830 (BatchN (None, 35, 35, 64)   192         conv2d_870[0][0]                 
__________________________________________________________________________________________________
activation_864 (Activation)     (None, 35, 35, 32)   0           batch_normalization_825[0][0]    
__________________________________________________________________________________________________
activation_866 (Activation)     (None, 35, 35, 32)   0           batch_normalization_827[0][0]    
__________________________________________________________________________________________________
activation_869 (Activation)     (None, 35, 35, 64)   0           batch_normalization_830[0][0]    
__________________________________________________________________________________________________
block35_1_mixed (Concatenate)   (None, 35, 35, 128)  0           activation_864[0][0]             
                                                                 activation_866[0][0]             
                                                                 activation_869[0][0]             
__________________________________________________________________________________________________
block35_1_conv (Conv2D)         (None, 35, 35, 320)  41280       block35_1_mixed[0][0]            
__________________________________________________________________________________________________
block35_1 (Lambda)              (None, 35, 35, 320)  0           mixed_5b[0][0]                   
                                                                 block35_1_conv[0][0]             
__________________________________________________________________________________________________
block35_1_ac (Activation)       (None, 35, 35, 320)  0           block35_1[0][0]                  
__________________________________________________________________________________________________
conv2d_874 (Conv2D)             (None, 35, 35, 32)   10240       block35_1_ac[0][0]               
__________________________________________________________________________________________________
batch_normalization_834 (BatchN (None, 35, 35, 32)   96          conv2d_874[0][0]                 
__________________________________________________________________________________________________
activation_873 (Activation)     (None, 35, 35, 32)   0           batch_normalization_834[0][0]    
__________________________________________________________________________________________________
conv2d_872 (Conv2D)             (None, 35, 35, 32)   10240       block35_1_ac[0][0]               
__________________________________________________________________________________________________
conv2d_875 (Conv2D)             (None, 35, 35, 48)   13824       activation_873[0][0]             
__________________________________________________________________________________________________
batch_normalization_832 (BatchN (None, 35, 35, 32)   96          conv2d_872[0][0]                 
__________________________________________________________________________________________________
batch_normalization_835 (BatchN (None, 35, 35, 48)   144         conv2d_875[0][0]                 
__________________________________________________________________________________________________
activation_871 (Activation)     (None, 35, 35, 32)   0           batch_normalization_832[0][0]    
__________________________________________________________________________________________________
activation_874 (Activation)     (None, 35, 35, 48)   0           batch_normalization_835[0][0]    
__________________________________________________________________________________________________
conv2d_871 (Conv2D)             (None, 35, 35, 32)   10240       block35_1_ac[0][0]               
__________________________________________________________________________________________________
conv2d_873 (Conv2D)             (None, 35, 35, 32)   9216        activation_871[0][0]             
__________________________________________________________________________________________________
conv2d_876 (Conv2D)             (None, 35, 35, 64)   27648       activation_874[0][0]             
__________________________________________________________________________________________________
batch_normalization_831 (BatchN (None, 35, 35, 32)   96          conv2d_871[0][0]                 
__________________________________________________________________________________________________
batch_normalization_833 (BatchN (None, 35, 35, 32)   96          conv2d_873[0][0]                 
__________________________________________________________________________________________________
batch_normalization_836 (BatchN (None, 35, 35, 64)   192         conv2d_876[0][0]                 
__________________________________________________________________________________________________
activation_870 (Activation)     (None, 35, 35, 32)   0           batch_normalization_831[0][0]    
__________________________________________________________________________________________________
activation_872 (Activation)     (None, 35, 35, 32)   0           batch_normalization_833[0][0]    
__________________________________________________________________________________________________
activation_875 (Activation)     (None, 35, 35, 64)   0           batch_normalization_836[0][0]    
__________________________________________________________________________________________________
block35_2_mixed (Concatenate)   (None, 35, 35, 128)  0           activation_870[0][0]             
                                                                 activation_872[0][0]             
                                                                 activation_875[0][0]             
__________________________________________________________________________________________________
block35_2_conv (Conv2D)         (None, 35, 35, 320)  41280       block35_2_mixed[0][0]            
__________________________________________________________________________________________________
block35_2 (Lambda)              (None, 35, 35, 320)  0           block35_1_ac[0][0]               
                                                                 block35_2_conv[0][0]             
__________________________________________________________________________________________________
block35_2_ac (Activation)       (None, 35, 35, 320)  0           block35_2[0][0]                  
__________________________________________________________________________________________________
conv2d_880 (Conv2D)             (None, 35, 35, 32)   10240       block35_2_ac[0][0]               
__________________________________________________________________________________________________
batch_normalization_840 (BatchN (None, 35, 35, 32)   96          conv2d_880[0][0]                 
__________________________________________________________________________________________________
activation_879 (Activation)     (None, 35, 35, 32)   0           batch_normalization_840[0][0]    
__________________________________________________________________________________________________
conv2d_878 (Conv2D)             (None, 35, 35, 32)   10240       block35_2_ac[0][0]               
__________________________________________________________________________________________________
conv2d_881 (Conv2D)             (None, 35, 35, 48)   13824       activation_879[0][0]             
__________________________________________________________________________________________________
batch_normalization_838 (BatchN (None, 35, 35, 32)   96          conv2d_878[0][0]                 
__________________________________________________________________________________________________
batch_normalization_841 (BatchN (None, 35, 35, 48)   144         conv2d_881[0][0]                 
__________________________________________________________________________________________________
activation_877 (Activation)     (None, 35, 35, 32)   0           batch_normalization_838[0][0]    
__________________________________________________________________________________________________
activation_880 (Activation)     (None, 35, 35, 48)   0           batch_normalization_841[0][0]    
__________________________________________________________________________________________________
conv2d_877 (Conv2D)             (None, 35, 35, 32)   10240       block35_2_ac[0][0]               
__________________________________________________________________________________________________
conv2d_879 (Conv2D)             (None, 35, 35, 32)   9216        activation_877[0][0]             
__________________________________________________________________________________________________
conv2d_882 (Conv2D)             (None, 35, 35, 64)   27648       activation_880[0][0]             
__________________________________________________________________________________________________
batch_normalization_837 (BatchN (None, 35, 35, 32)   96          conv2d_877[0][0]                 
__________________________________________________________________________________________________
batch_normalization_839 (BatchN (None, 35, 35, 32)   96          conv2d_879[0][0]                 
__________________________________________________________________________________________________
batch_normalization_842 (BatchN (None, 35, 35, 64)   192         conv2d_882[0][0]                 
__________________________________________________________________________________________________
activation_876 (Activation)     (None, 35, 35, 32)   0           batch_normalization_837[0][0]    
__________________________________________________________________________________________________
activation_878 (Activation)     (None, 35, 35, 32)   0           batch_normalization_839[0][0]    
__________________________________________________________________________________________________
activation_881 (Activation)     (None, 35, 35, 64)   0           batch_normalization_842[0][0]    
__________________________________________________________________________________________________
block35_3_mixed (Concatenate)   (None, 35, 35, 128)  0           activation_876[0][0]             
                                                                 activation_878[0][0]             
                                                                 activation_881[0][0]             
__________________________________________________________________________________________________
block35_3_conv (Conv2D)         (None, 35, 35, 320)  41280       block35_3_mixed[0][0]            
__________________________________________________________________________________________________
block35_3 (Lambda)              (None, 35, 35, 320)  0           block35_2_ac[0][0]               
                                                                 block35_3_conv[0][0]             
__________________________________________________________________________________________________
block35_3_ac (Activation)       (None, 35, 35, 320)  0           block35_3[0][0]                  
__________________________________________________________________________________________________
conv2d_886 (Conv2D)             (None, 35, 35, 32)   10240       block35_3_ac[0][0]               
__________________________________________________________________________________________________
batch_normalization_846 (BatchN (None, 35, 35, 32)   96          conv2d_886[0][0]                 
__________________________________________________________________________________________________
activation_885 (Activation)     (None, 35, 35, 32)   0           batch_normalization_846[0][0]    
__________________________________________________________________________________________________
conv2d_884 (Conv2D)             (None, 35, 35, 32)   10240       block35_3_ac[0][0]               
__________________________________________________________________________________________________
conv2d_887 (Conv2D)             (None, 35, 35, 48)   13824       activation_885[0][0]             
__________________________________________________________________________________________________
batch_normalization_844 (BatchN (None, 35, 35, 32)   96          conv2d_884[0][0]                 
__________________________________________________________________________________________________
batch_normalization_847 (BatchN (None, 35, 35, 48)   144         conv2d_887[0][0]                 
__________________________________________________________________________________________________
activation_883 (Activation)     (None, 35, 35, 32)   0           batch_normalization_844[0][0]    
__________________________________________________________________________________________________
activation_886 (Activation)     (None, 35, 35, 48)   0           batch_normalization_847[0][0]    
__________________________________________________________________________________________________
conv2d_883 (Conv2D)             (None, 35, 35, 32)   10240       block35_3_ac[0][0]               
__________________________________________________________________________________________________
conv2d_885 (Conv2D)             (None, 35, 35, 32)   9216        activation_883[0][0]             
__________________________________________________________________________________________________
conv2d_888 (Conv2D)             (None, 35, 35, 64)   27648       activation_886[0][0]             
__________________________________________________________________________________________________
batch_normalization_843 (BatchN (None, 35, 35, 32)   96          conv2d_883[0][0]                 
__________________________________________________________________________________________________
batch_normalization_845 (BatchN (None, 35, 35, 32)   96          conv2d_885[0][0]                 
__________________________________________________________________________________________________
batch_normalization_848 (BatchN (None, 35, 35, 64)   192         conv2d_888[0][0]                 
__________________________________________________________________________________________________
activation_882 (Activation)     (None, 35, 35, 32)   0           batch_normalization_843[0][0]    
__________________________________________________________________________________________________
activation_884 (Activation)     (None, 35, 35, 32)   0           batch_normalization_845[0][0]    
__________________________________________________________________________________________________
activation_887 (Activation)     (None, 35, 35, 64)   0           batch_normalization_848[0][0]    
__________________________________________________________________________________________________
block35_4_mixed (Concatenate)   (None, 35, 35, 128)  0           activation_882[0][0]             
                                                                 activation_884[0][0]             
                                                                 activation_887[0][0]             
__________________________________________________________________________________________________
block35_4_conv (Conv2D)         (None, 35, 35, 320)  41280       block35_4_mixed[0][0]            
__________________________________________________________________________________________________
block35_4 (Lambda)              (None, 35, 35, 320)  0           block35_3_ac[0][0]               
                                                                 block35_4_conv[0][0]             
__________________________________________________________________________________________________
block35_4_ac (Activation)       (None, 35, 35, 320)  0           block35_4[0][0]                  
__________________________________________________________________________________________________
conv2d_892 (Conv2D)             (None, 35, 35, 32)   10240       block35_4_ac[0][0]               
__________________________________________________________________________________________________
batch_normalization_852 (BatchN (None, 35, 35, 32)   96          conv2d_892[0][0]                 
__________________________________________________________________________________________________
activation_891 (Activation)     (None, 35, 35, 32)   0           batch_normalization_852[0][0]    
__________________________________________________________________________________________________
conv2d_890 (Conv2D)             (None, 35, 35, 32)   10240       block35_4_ac[0][0]               
__________________________________________________________________________________________________
conv2d_893 (Conv2D)             (None, 35, 35, 48)   13824       activation_891[0][0]             
__________________________________________________________________________________________________
batch_normalization_850 (BatchN (None, 35, 35, 32)   96          conv2d_890[0][0]                 
__________________________________________________________________________________________________
batch_normalization_853 (BatchN (None, 35, 35, 48)   144         conv2d_893[0][0]                 
__________________________________________________________________________________________________
activation_889 (Activation)     (None, 35, 35, 32)   0           batch_normalization_850[0][0]    
__________________________________________________________________________________________________
activation_892 (Activation)     (None, 35, 35, 48)   0           batch_normalization_853[0][0]    
__________________________________________________________________________________________________
conv2d_889 (Conv2D)             (None, 35, 35, 32)   10240       block35_4_ac[0][0]               
__________________________________________________________________________________________________
conv2d_891 (Conv2D)             (None, 35, 35, 32)   9216        activation_889[0][0]             
__________________________________________________________________________________________________
conv2d_894 (Conv2D)             (None, 35, 35, 64)   27648       activation_892[0][0]             
__________________________________________________________________________________________________
batch_normalization_849 (BatchN (None, 35, 35, 32)   96          conv2d_889[0][0]                 
__________________________________________________________________________________________________
batch_normalization_851 (BatchN (None, 35, 35, 32)   96          conv2d_891[0][0]                 
__________________________________________________________________________________________________
batch_normalization_854 (BatchN (None, 35, 35, 64)   192         conv2d_894[0][0]                 
__________________________________________________________________________________________________
activation_888 (Activation)     (None, 35, 35, 32)   0           batch_normalization_849[0][0]    
__________________________________________________________________________________________________
activation_890 (Activation)     (None, 35, 35, 32)   0           batch_normalization_851[0][0]    
__________________________________________________________________________________________________
activation_893 (Activation)     (None, 35, 35, 64)   0           batch_normalization_854[0][0]    
__________________________________________________________________________________________________
block35_5_mixed (Concatenate)   (None, 35, 35, 128)  0           activation_888[0][0]             
                                                                 activation_890[0][0]             
                                                                 activation_893[0][0]             
__________________________________________________________________________________________________
block35_5_conv (Conv2D)         (None, 35, 35, 320)  41280       block35_5_mixed[0][0]            
__________________________________________________________________________________________________
block35_5 (Lambda)              (None, 35, 35, 320)  0           block35_4_ac[0][0]               
                                                                 block35_5_conv[0][0]             
__________________________________________________________________________________________________
block35_5_ac (Activation)       (None, 35, 35, 320)  0           block35_5[0][0]                  
__________________________________________________________________________________________________
conv2d_898 (Conv2D)             (None, 35, 35, 32)   10240       block35_5_ac[0][0]               
__________________________________________________________________________________________________
batch_normalization_858 (BatchN (None, 35, 35, 32)   96          conv2d_898[0][0]                 
__________________________________________________________________________________________________
activation_897 (Activation)     (None, 35, 35, 32)   0           batch_normalization_858[0][0]    
__________________________________________________________________________________________________
conv2d_896 (Conv2D)             (None, 35, 35, 32)   10240       block35_5_ac[0][0]               
__________________________________________________________________________________________________
conv2d_899 (Conv2D)             (None, 35, 35, 48)   13824       activation_897[0][0]             
__________________________________________________________________________________________________
batch_normalization_856 (BatchN (None, 35, 35, 32)   96          conv2d_896[0][0]                 
__________________________________________________________________________________________________
batch_normalization_859 (BatchN (None, 35, 35, 48)   144         conv2d_899[0][0]                 
__________________________________________________________________________________________________
activation_895 (Activation)     (None, 35, 35, 32)   0           batch_normalization_856[0][0]    
__________________________________________________________________________________________________
activation_898 (Activation)     (None, 35, 35, 48)   0           batch_normalization_859[0][0]    
__________________________________________________________________________________________________
conv2d_895 (Conv2D)             (None, 35, 35, 32)   10240       block35_5_ac[0][0]               
__________________________________________________________________________________________________
conv2d_897 (Conv2D)             (None, 35, 35, 32)   9216        activation_895[0][0]             
__________________________________________________________________________________________________
conv2d_900 (Conv2D)             (None, 35, 35, 64)   27648       activation_898[0][0]             
__________________________________________________________________________________________________
batch_normalization_855 (BatchN (None, 35, 35, 32)   96          conv2d_895[0][0]                 
__________________________________________________________________________________________________
batch_normalization_857 (BatchN (None, 35, 35, 32)   96          conv2d_897[0][0]                 
__________________________________________________________________________________________________
batch_normalization_860 (BatchN (None, 35, 35, 64)   192         conv2d_900[0][0]                 
__________________________________________________________________________________________________
activation_894 (Activation)     (None, 35, 35, 32)   0           batch_normalization_855[0][0]    
__________________________________________________________________________________________________
activation_896 (Activation)     (None, 35, 35, 32)   0           batch_normalization_857[0][0]    
__________________________________________________________________________________________________
activation_899 (Activation)     (None, 35, 35, 64)   0           batch_normalization_860[0][0]    
__________________________________________________________________________________________________
block35_6_mixed (Concatenate)   (None, 35, 35, 128)  0           activation_894[0][0]             
                                                                 activation_896[0][0]             
                                                                 activation_899[0][0]             
__________________________________________________________________________________________________
block35_6_conv (Conv2D)         (None, 35, 35, 320)  41280       block35_6_mixed[0][0]            
__________________________________________________________________________________________________
block35_6 (Lambda)              (None, 35, 35, 320)  0           block35_5_ac[0][0]               
                                                                 block35_6_conv[0][0]             
__________________________________________________________________________________________________
block35_6_ac (Activation)       (None, 35, 35, 320)  0           block35_6[0][0]                  
__________________________________________________________________________________________________
conv2d_904 (Conv2D)             (None, 35, 35, 32)   10240       block35_6_ac[0][0]               
__________________________________________________________________________________________________
batch_normalization_864 (BatchN (None, 35, 35, 32)   96          conv2d_904[0][0]                 
__________________________________________________________________________________________________
activation_903 (Activation)     (None, 35, 35, 32)   0           batch_normalization_864[0][0]    
__________________________________________________________________________________________________
conv2d_902 (Conv2D)             (None, 35, 35, 32)   10240       block35_6_ac[0][0]               
__________________________________________________________________________________________________
conv2d_905 (Conv2D)             (None, 35, 35, 48)   13824       activation_903[0][0]             
__________________________________________________________________________________________________
batch_normalization_862 (BatchN (None, 35, 35, 32)   96          conv2d_902[0][0]                 
__________________________________________________________________________________________________
batch_normalization_865 (BatchN (None, 35, 35, 48)   144         conv2d_905[0][0]                 
__________________________________________________________________________________________________
activation_901 (Activation)     (None, 35, 35, 32)   0           batch_normalization_862[0][0]    
__________________________________________________________________________________________________
activation_904 (Activation)     (None, 35, 35, 48)   0           batch_normalization_865[0][0]    
__________________________________________________________________________________________________
conv2d_901 (Conv2D)             (None, 35, 35, 32)   10240       block35_6_ac[0][0]               
__________________________________________________________________________________________________
conv2d_903 (Conv2D)             (None, 35, 35, 32)   9216        activation_901[0][0]             
__________________________________________________________________________________________________
conv2d_906 (Conv2D)             (None, 35, 35, 64)   27648       activation_904[0][0]             
__________________________________________________________________________________________________
batch_normalization_861 (BatchN (None, 35, 35, 32)   96          conv2d_901[0][0]                 
__________________________________________________________________________________________________
batch_normalization_863 (BatchN (None, 35, 35, 32)   96          conv2d_903[0][0]                 
__________________________________________________________________________________________________
batch_normalization_866 (BatchN (None, 35, 35, 64)   192         conv2d_906[0][0]                 
__________________________________________________________________________________________________
activation_900 (Activation)     (None, 35, 35, 32)   0           batch_normalization_861[0][0]    
__________________________________________________________________________________________________
activation_902 (Activation)     (None, 35, 35, 32)   0           batch_normalization_863[0][0]    
__________________________________________________________________________________________________
activation_905 (Activation)     (None, 35, 35, 64)   0           batch_normalization_866[0][0]    
__________________________________________________________________________________________________
block35_7_mixed (Concatenate)   (None, 35, 35, 128)  0           activation_900[0][0]             
                                                                 activation_902[0][0]             
                                                                 activation_905[0][0]             
__________________________________________________________________________________________________
block35_7_conv (Conv2D)         (None, 35, 35, 320)  41280       block35_7_mixed[0][0]            
__________________________________________________________________________________________________
block35_7 (Lambda)              (None, 35, 35, 320)  0           block35_6_ac[0][0]               
                                                                 block35_7_conv[0][0]             
__________________________________________________________________________________________________
block35_7_ac (Activation)       (None, 35, 35, 320)  0           block35_7[0][0]                  
__________________________________________________________________________________________________
conv2d_910 (Conv2D)             (None, 35, 35, 32)   10240       block35_7_ac[0][0]               
__________________________________________________________________________________________________
batch_normalization_870 (BatchN (None, 35, 35, 32)   96          conv2d_910[0][0]                 
__________________________________________________________________________________________________
activation_909 (Activation)     (None, 35, 35, 32)   0           batch_normalization_870[0][0]    
__________________________________________________________________________________________________
conv2d_908 (Conv2D)             (None, 35, 35, 32)   10240       block35_7_ac[0][0]               
__________________________________________________________________________________________________
conv2d_911 (Conv2D)             (None, 35, 35, 48)   13824       activation_909[0][0]             
__________________________________________________________________________________________________
batch_normalization_868 (BatchN (None, 35, 35, 32)   96          conv2d_908[0][0]                 
__________________________________________________________________________________________________
batch_normalization_871 (BatchN (None, 35, 35, 48)   144         conv2d_911[0][0]                 
__________________________________________________________________________________________________
activation_907 (Activation)     (None, 35, 35, 32)   0           batch_normalization_868[0][0]    
__________________________________________________________________________________________________
activation_910 (Activation)     (None, 35, 35, 48)   0           batch_normalization_871[0][0]    
__________________________________________________________________________________________________
conv2d_907 (Conv2D)             (None, 35, 35, 32)   10240       block35_7_ac[0][0]               
__________________________________________________________________________________________________
conv2d_909 (Conv2D)             (None, 35, 35, 32)   9216        activation_907[0][0]             
__________________________________________________________________________________________________
conv2d_912 (Conv2D)             (None, 35, 35, 64)   27648       activation_910[0][0]             
__________________________________________________________________________________________________
batch_normalization_867 (BatchN (None, 35, 35, 32)   96          conv2d_907[0][0]                 
__________________________________________________________________________________________________
batch_normalization_869 (BatchN (None, 35, 35, 32)   96          conv2d_909[0][0]                 
__________________________________________________________________________________________________
batch_normalization_872 (BatchN (None, 35, 35, 64)   192         conv2d_912[0][0]                 
__________________________________________________________________________________________________
activation_906 (Activation)     (None, 35, 35, 32)   0           batch_normalization_867[0][0]    
__________________________________________________________________________________________________
activation_908 (Activation)     (None, 35, 35, 32)   0           batch_normalization_869[0][0]    
__________________________________________________________________________________________________
activation_911 (Activation)     (None, 35, 35, 64)   0           batch_normalization_872[0][0]    
__________________________________________________________________________________________________
block35_8_mixed (Concatenate)   (None, 35, 35, 128)  0           activation_906[0][0]             
                                                                 activation_908[0][0]             
                                                                 activation_911[0][0]             
__________________________________________________________________________________________________
block35_8_conv (Conv2D)         (None, 35, 35, 320)  41280       block35_8_mixed[0][0]            
__________________________________________________________________________________________________
block35_8 (Lambda)              (None, 35, 35, 320)  0           block35_7_ac[0][0]               
                                                                 block35_8_conv[0][0]             
__________________________________________________________________________________________________
block35_8_ac (Activation)       (None, 35, 35, 320)  0           block35_8[0][0]                  
__________________________________________________________________________________________________
conv2d_916 (Conv2D)             (None, 35, 35, 32)   10240       block35_8_ac[0][0]               
__________________________________________________________________________________________________
batch_normalization_876 (BatchN (None, 35, 35, 32)   96          conv2d_916[0][0]                 
__________________________________________________________________________________________________
activation_915 (Activation)     (None, 35, 35, 32)   0           batch_normalization_876[0][0]    
__________________________________________________________________________________________________
conv2d_914 (Conv2D)             (None, 35, 35, 32)   10240       block35_8_ac[0][0]               
__________________________________________________________________________________________________
conv2d_917 (Conv2D)             (None, 35, 35, 48)   13824       activation_915[0][0]             
__________________________________________________________________________________________________
batch_normalization_874 (BatchN (None, 35, 35, 32)   96          conv2d_914[0][0]                 
__________________________________________________________________________________________________
batch_normalization_877 (BatchN (None, 35, 35, 48)   144         conv2d_917[0][0]                 
__________________________________________________________________________________________________
activation_913 (Activation)     (None, 35, 35, 32)   0           batch_normalization_874[0][0]    
__________________________________________________________________________________________________
activation_916 (Activation)     (None, 35, 35, 48)   0           batch_normalization_877[0][0]    
__________________________________________________________________________________________________
conv2d_913 (Conv2D)             (None, 35, 35, 32)   10240       block35_8_ac[0][0]               
__________________________________________________________________________________________________
conv2d_915 (Conv2D)             (None, 35, 35, 32)   9216        activation_913[0][0]             
__________________________________________________________________________________________________
conv2d_918 (Conv2D)             (None, 35, 35, 64)   27648       activation_916[0][0]             
__________________________________________________________________________________________________
batch_normalization_873 (BatchN (None, 35, 35, 32)   96          conv2d_913[0][0]                 
__________________________________________________________________________________________________
batch_normalization_875 (BatchN (None, 35, 35, 32)   96          conv2d_915[0][0]                 
__________________________________________________________________________________________________
batch_normalization_878 (BatchN (None, 35, 35, 64)   192         conv2d_918[0][0]                 
__________________________________________________________________________________________________
activation_912 (Activation)     (None, 35, 35, 32)   0           batch_normalization_873[0][0]    
__________________________________________________________________________________________________
activation_914 (Activation)     (None, 35, 35, 32)   0           batch_normalization_875[0][0]    
__________________________________________________________________________________________________
activation_917 (Activation)     (None, 35, 35, 64)   0           batch_normalization_878[0][0]    
__________________________________________________________________________________________________
block35_9_mixed (Concatenate)   (None, 35, 35, 128)  0           activation_912[0][0]             
                                                                 activation_914[0][0]             
                                                                 activation_917[0][0]             
__________________________________________________________________________________________________
block35_9_conv (Conv2D)         (None, 35, 35, 320)  41280       block35_9_mixed[0][0]            
__________________________________________________________________________________________________
block35_9 (Lambda)              (None, 35, 35, 320)  0           block35_8_ac[0][0]               
                                                                 block35_9_conv[0][0]             
__________________________________________________________________________________________________
block35_9_ac (Activation)       (None, 35, 35, 320)  0           block35_9[0][0]                  
__________________________________________________________________________________________________
conv2d_922 (Conv2D)             (None, 35, 35, 32)   10240       block35_9_ac[0][0]               
__________________________________________________________________________________________________
batch_normalization_882 (BatchN (None, 35, 35, 32)   96          conv2d_922[0][0]                 
__________________________________________________________________________________________________
activation_921 (Activation)     (None, 35, 35, 32)   0           batch_normalization_882[0][0]    
__________________________________________________________________________________________________
conv2d_920 (Conv2D)             (None, 35, 35, 32)   10240       block35_9_ac[0][0]               
__________________________________________________________________________________________________
conv2d_923 (Conv2D)             (None, 35, 35, 48)   13824       activation_921[0][0]             
__________________________________________________________________________________________________
batch_normalization_880 (BatchN (None, 35, 35, 32)   96          conv2d_920[0][0]                 
__________________________________________________________________________________________________
batch_normalization_883 (BatchN (None, 35, 35, 48)   144         conv2d_923[0][0]                 
__________________________________________________________________________________________________
activation_919 (Activation)     (None, 35, 35, 32)   0           batch_normalization_880[0][0]    
__________________________________________________________________________________________________
activation_922 (Activation)     (None, 35, 35, 48)   0           batch_normalization_883[0][0]    
__________________________________________________________________________________________________
conv2d_919 (Conv2D)             (None, 35, 35, 32)   10240       block35_9_ac[0][0]               
__________________________________________________________________________________________________
conv2d_921 (Conv2D)             (None, 35, 35, 32)   9216        activation_919[0][0]             
__________________________________________________________________________________________________
conv2d_924 (Conv2D)             (None, 35, 35, 64)   27648       activation_922[0][0]             
__________________________________________________________________________________________________
batch_normalization_879 (BatchN (None, 35, 35, 32)   96          conv2d_919[0][0]                 
__________________________________________________________________________________________________
batch_normalization_881 (BatchN (None, 35, 35, 32)   96          conv2d_921[0][0]                 
__________________________________________________________________________________________________
batch_normalization_884 (BatchN (None, 35, 35, 64)   192         conv2d_924[0][0]                 
__________________________________________________________________________________________________
activation_918 (Activation)     (None, 35, 35, 32)   0           batch_normalization_879[0][0]    
__________________________________________________________________________________________________
activation_920 (Activation)     (None, 35, 35, 32)   0           batch_normalization_881[0][0]    
__________________________________________________________________________________________________
activation_923 (Activation)     (None, 35, 35, 64)   0           batch_normalization_884[0][0]    
__________________________________________________________________________________________________
block35_10_mixed (Concatenate)  (None, 35, 35, 128)  0           activation_918[0][0]             
                                                                 activation_920[0][0]             
                                                                 activation_923[0][0]             
__________________________________________________________________________________________________
block35_10_conv (Conv2D)        (None, 35, 35, 320)  41280       block35_10_mixed[0][0]           
__________________________________________________________________________________________________
block35_10 (Lambda)             (None, 35, 35, 320)  0           block35_9_ac[0][0]               
                                                                 block35_10_conv[0][0]            
__________________________________________________________________________________________________
block35_10_ac (Activation)      (None, 35, 35, 320)  0           block35_10[0][0]                 
__________________________________________________________________________________________________
conv2d_926 (Conv2D)             (None, 35, 35, 256)  81920       block35_10_ac[0][0]              
__________________________________________________________________________________________________
batch_normalization_886 (BatchN (None, 35, 35, 256)  768         conv2d_926[0][0]                 
__________________________________________________________________________________________________
activation_925 (Activation)     (None, 35, 35, 256)  0           batch_normalization_886[0][0]    
__________________________________________________________________________________________________
conv2d_927 (Conv2D)             (None, 35, 35, 256)  589824      activation_925[0][0]             
__________________________________________________________________________________________________
batch_normalization_887 (BatchN (None, 35, 35, 256)  768         conv2d_927[0][0]                 
__________________________________________________________________________________________________
activation_926 (Activation)     (None, 35, 35, 256)  0           batch_normalization_887[0][0]    
__________________________________________________________________________________________________
conv2d_925 (Conv2D)             (None, 17, 17, 384)  1105920     block35_10_ac[0][0]              
__________________________________________________________________________________________________
conv2d_928 (Conv2D)             (None, 17, 17, 384)  884736      activation_926[0][0]             
__________________________________________________________________________________________________
batch_normalization_885 (BatchN (None, 17, 17, 384)  1152        conv2d_925[0][0]                 
__________________________________________________________________________________________________
batch_normalization_888 (BatchN (None, 17, 17, 384)  1152        conv2d_928[0][0]                 
__________________________________________________________________________________________________
activation_924 (Activation)     (None, 17, 17, 384)  0           batch_normalization_885[0][0]    
__________________________________________________________________________________________________
activation_927 (Activation)     (None, 17, 17, 384)  0           batch_normalization_888[0][0]    
__________________________________________________________________________________________________
max_pooling2d_18 (MaxPooling2D) (None, 17, 17, 320)  0           block35_10_ac[0][0]              
__________________________________________________________________________________________________
mixed_6a (Concatenate)          (None, 17, 17, 1088) 0           activation_924[0][0]             
                                                                 activation_927[0][0]             
                                                                 max_pooling2d_18[0][0]           
__________________________________________________________________________________________________
conv2d_930 (Conv2D)             (None, 17, 17, 128)  139264      mixed_6a[0][0]                   
__________________________________________________________________________________________________
batch_normalization_890 (BatchN (None, 17, 17, 128)  384         conv2d_930[0][0]                 
__________________________________________________________________________________________________
activation_929 (Activation)     (None, 17, 17, 128)  0           batch_normalization_890[0][0]    
__________________________________________________________________________________________________
conv2d_931 (Conv2D)             (None, 17, 17, 160)  143360      activation_929[0][0]             
__________________________________________________________________________________________________
batch_normalization_891 (BatchN (None, 17, 17, 160)  480         conv2d_931[0][0]                 
__________________________________________________________________________________________________
activation_930 (Activation)     (None, 17, 17, 160)  0           batch_normalization_891[0][0]    
__________________________________________________________________________________________________
conv2d_929 (Conv2D)             (None, 17, 17, 192)  208896      mixed_6a[0][0]                   
__________________________________________________________________________________________________
conv2d_932 (Conv2D)             (None, 17, 17, 192)  215040      activation_930[0][0]             
__________________________________________________________________________________________________
batch_normalization_889 (BatchN (None, 17, 17, 192)  576         conv2d_929[0][0]                 
__________________________________________________________________________________________________
batch_normalization_892 (BatchN (None, 17, 17, 192)  576         conv2d_932[0][0]                 
__________________________________________________________________________________________________
activation_928 (Activation)     (None, 17, 17, 192)  0           batch_normalization_889[0][0]    
__________________________________________________________________________________________________
activation_931 (Activation)     (None, 17, 17, 192)  0           batch_normalization_892[0][0]    
__________________________________________________________________________________________________
block17_1_mixed (Concatenate)   (None, 17, 17, 384)  0           activation_928[0][0]             
                                                                 activation_931[0][0]             
__________________________________________________________________________________________________
block17_1_conv (Conv2D)         (None, 17, 17, 1088) 418880      block17_1_mixed[0][0]            
__________________________________________________________________________________________________
block17_1 (Lambda)              (None, 17, 17, 1088) 0           mixed_6a[0][0]                   
                                                                 block17_1_conv[0][0]             
__________________________________________________________________________________________________
block17_1_ac (Activation)       (None, 17, 17, 1088) 0           block17_1[0][0]                  
__________________________________________________________________________________________________
conv2d_934 (Conv2D)             (None, 17, 17, 128)  139264      block17_1_ac[0][0]               
__________________________________________________________________________________________________
batch_normalization_894 (BatchN (None, 17, 17, 128)  384         conv2d_934[0][0]                 
__________________________________________________________________________________________________
activation_933 (Activation)     (None, 17, 17, 128)  0           batch_normalization_894[0][0]    
__________________________________________________________________________________________________
conv2d_935 (Conv2D)             (None, 17, 17, 160)  143360      activation_933[0][0]             
__________________________________________________________________________________________________
batch_normalization_895 (BatchN (None, 17, 17, 160)  480         conv2d_935[0][0]                 
__________________________________________________________________________________________________
activation_934 (Activation)     (None, 17, 17, 160)  0           batch_normalization_895[0][0]    
__________________________________________________________________________________________________
conv2d_933 (Conv2D)             (None, 17, 17, 192)  208896      block17_1_ac[0][0]               
__________________________________________________________________________________________________
conv2d_936 (Conv2D)             (None, 17, 17, 192)  215040      activation_934[0][0]             
__________________________________________________________________________________________________
batch_normalization_893 (BatchN (None, 17, 17, 192)  576         conv2d_933[0][0]                 
__________________________________________________________________________________________________
batch_normalization_896 (BatchN (None, 17, 17, 192)  576         conv2d_936[0][0]                 
__________________________________________________________________________________________________
activation_932 (Activation)     (None, 17, 17, 192)  0           batch_normalization_893[0][0]    
__________________________________________________________________________________________________
activation_935 (Activation)     (None, 17, 17, 192)  0           batch_normalization_896[0][0]    
__________________________________________________________________________________________________
block17_2_mixed (Concatenate)   (None, 17, 17, 384)  0           activation_932[0][0]             
                                                                 activation_935[0][0]             
__________________________________________________________________________________________________
block17_2_conv (Conv2D)         (None, 17, 17, 1088) 418880      block17_2_mixed[0][0]            
__________________________________________________________________________________________________
block17_2 (Lambda)              (None, 17, 17, 1088) 0           block17_1_ac[0][0]               
                                                                 block17_2_conv[0][0]             
__________________________________________________________________________________________________
block17_2_ac (Activation)       (None, 17, 17, 1088) 0           block17_2[0][0]                  
__________________________________________________________________________________________________
conv2d_938 (Conv2D)             (None, 17, 17, 128)  139264      block17_2_ac[0][0]               
__________________________________________________________________________________________________
batch_normalization_898 (BatchN (None, 17, 17, 128)  384         conv2d_938[0][0]                 
__________________________________________________________________________________________________
activation_937 (Activation)     (None, 17, 17, 128)  0           batch_normalization_898[0][0]    
__________________________________________________________________________________________________
conv2d_939 (Conv2D)             (None, 17, 17, 160)  143360      activation_937[0][0]             
__________________________________________________________________________________________________
batch_normalization_899 (BatchN (None, 17, 17, 160)  480         conv2d_939[0][0]                 
__________________________________________________________________________________________________
activation_938 (Activation)     (None, 17, 17, 160)  0           batch_normalization_899[0][0]    
__________________________________________________________________________________________________
conv2d_937 (Conv2D)             (None, 17, 17, 192)  208896      block17_2_ac[0][0]               
__________________________________________________________________________________________________
conv2d_940 (Conv2D)             (None, 17, 17, 192)  215040      activation_938[0][0]             
__________________________________________________________________________________________________
batch_normalization_897 (BatchN (None, 17, 17, 192)  576         conv2d_937[0][0]                 
__________________________________________________________________________________________________
batch_normalization_900 (BatchN (None, 17, 17, 192)  576         conv2d_940[0][0]                 
__________________________________________________________________________________________________
activation_936 (Activation)     (None, 17, 17, 192)  0           batch_normalization_897[0][0]    
__________________________________________________________________________________________________
activation_939 (Activation)     (None, 17, 17, 192)  0           batch_normalization_900[0][0]    
__________________________________________________________________________________________________
block17_3_mixed (Concatenate)   (None, 17, 17, 384)  0           activation_936[0][0]             
                                                                 activation_939[0][0]             
__________________________________________________________________________________________________
block17_3_conv (Conv2D)         (None, 17, 17, 1088) 418880      block17_3_mixed[0][0]            
__________________________________________________________________________________________________
block17_3 (Lambda)              (None, 17, 17, 1088) 0           block17_2_ac[0][0]               
                                                                 block17_3_conv[0][0]             
__________________________________________________________________________________________________
block17_3_ac (Activation)       (None, 17, 17, 1088) 0           block17_3[0][0]                  
__________________________________________________________________________________________________
conv2d_942 (Conv2D)             (None, 17, 17, 128)  139264      block17_3_ac[0][0]               
__________________________________________________________________________________________________
batch_normalization_902 (BatchN (None, 17, 17, 128)  384         conv2d_942[0][0]                 
__________________________________________________________________________________________________
activation_941 (Activation)     (None, 17, 17, 128)  0           batch_normalization_902[0][0]    
__________________________________________________________________________________________________
conv2d_943 (Conv2D)             (None, 17, 17, 160)  143360      activation_941[0][0]             
__________________________________________________________________________________________________
batch_normalization_903 (BatchN (None, 17, 17, 160)  480         conv2d_943[0][0]                 
__________________________________________________________________________________________________
activation_942 (Activation)     (None, 17, 17, 160)  0           batch_normalization_903[0][0]    
__________________________________________________________________________________________________
conv2d_941 (Conv2D)             (None, 17, 17, 192)  208896      block17_3_ac[0][0]               
__________________________________________________________________________________________________
conv2d_944 (Conv2D)             (None, 17, 17, 192)  215040      activation_942[0][0]             
__________________________________________________________________________________________________
batch_normalization_901 (BatchN (None, 17, 17, 192)  576         conv2d_941[0][0]                 
__________________________________________________________________________________________________
batch_normalization_904 (BatchN (None, 17, 17, 192)  576         conv2d_944[0][0]                 
__________________________________________________________________________________________________
activation_940 (Activation)     (None, 17, 17, 192)  0           batch_normalization_901[0][0]    
__________________________________________________________________________________________________
activation_943 (Activation)     (None, 17, 17, 192)  0           batch_normalization_904[0][0]    
__________________________________________________________________________________________________
block17_4_mixed (Concatenate)   (None, 17, 17, 384)  0           activation_940[0][0]             
                                                                 activation_943[0][0]             
__________________________________________________________________________________________________
block17_4_conv (Conv2D)         (None, 17, 17, 1088) 418880      block17_4_mixed[0][0]            
__________________________________________________________________________________________________
block17_4 (Lambda)              (None, 17, 17, 1088) 0           block17_3_ac[0][0]               
                                                                 block17_4_conv[0][0]             
__________________________________________________________________________________________________
block17_4_ac (Activation)       (None, 17, 17, 1088) 0           block17_4[0][0]                  
__________________________________________________________________________________________________
conv2d_946 (Conv2D)             (None, 17, 17, 128)  139264      block17_4_ac[0][0]               
__________________________________________________________________________________________________
batch_normalization_906 (BatchN (None, 17, 17, 128)  384         conv2d_946[0][0]                 
__________________________________________________________________________________________________
activation_945 (Activation)     (None, 17, 17, 128)  0           batch_normalization_906[0][0]    
__________________________________________________________________________________________________
conv2d_947 (Conv2D)             (None, 17, 17, 160)  143360      activation_945[0][0]             
__________________________________________________________________________________________________
batch_normalization_907 (BatchN (None, 17, 17, 160)  480         conv2d_947[0][0]                 
__________________________________________________________________________________________________
activation_946 (Activation)     (None, 17, 17, 160)  0           batch_normalization_907[0][0]    
__________________________________________________________________________________________________
conv2d_945 (Conv2D)             (None, 17, 17, 192)  208896      block17_4_ac[0][0]               
__________________________________________________________________________________________________
conv2d_948 (Conv2D)             (None, 17, 17, 192)  215040      activation_946[0][0]             
__________________________________________________________________________________________________
batch_normalization_905 (BatchN (None, 17, 17, 192)  576         conv2d_945[0][0]                 
__________________________________________________________________________________________________
batch_normalization_908 (BatchN (None, 17, 17, 192)  576         conv2d_948[0][0]                 
__________________________________________________________________________________________________
activation_944 (Activation)     (None, 17, 17, 192)  0           batch_normalization_905[0][0]    
__________________________________________________________________________________________________
activation_947 (Activation)     (None, 17, 17, 192)  0           batch_normalization_908[0][0]    
__________________________________________________________________________________________________
block17_5_mixed (Concatenate)   (None, 17, 17, 384)  0           activation_944[0][0]             
                                                                 activation_947[0][0]             
__________________________________________________________________________________________________
block17_5_conv (Conv2D)         (None, 17, 17, 1088) 418880      block17_5_mixed[0][0]            
__________________________________________________________________________________________________
block17_5 (Lambda)              (None, 17, 17, 1088) 0           block17_4_ac[0][0]               
                                                                 block17_5_conv[0][0]             
__________________________________________________________________________________________________
block17_5_ac (Activation)       (None, 17, 17, 1088) 0           block17_5[0][0]                  
__________________________________________________________________________________________________
conv2d_950 (Conv2D)             (None, 17, 17, 128)  139264      block17_5_ac[0][0]               
__________________________________________________________________________________________________
batch_normalization_910 (BatchN (None, 17, 17, 128)  384         conv2d_950[0][0]                 
__________________________________________________________________________________________________
activation_949 (Activation)     (None, 17, 17, 128)  0           batch_normalization_910[0][0]    
__________________________________________________________________________________________________
conv2d_951 (Conv2D)             (None, 17, 17, 160)  143360      activation_949[0][0]             
__________________________________________________________________________________________________
batch_normalization_911 (BatchN (None, 17, 17, 160)  480         conv2d_951[0][0]                 
__________________________________________________________________________________________________
activation_950 (Activation)     (None, 17, 17, 160)  0           batch_normalization_911[0][0]    
__________________________________________________________________________________________________
conv2d_949 (Conv2D)             (None, 17, 17, 192)  208896      block17_5_ac[0][0]               
__________________________________________________________________________________________________
conv2d_952 (Conv2D)             (None, 17, 17, 192)  215040      activation_950[0][0]             
__________________________________________________________________________________________________
batch_normalization_909 (BatchN (None, 17, 17, 192)  576         conv2d_949[0][0]                 
__________________________________________________________________________________________________
batch_normalization_912 (BatchN (None, 17, 17, 192)  576         conv2d_952[0][0]                 
__________________________________________________________________________________________________
activation_948 (Activation)     (None, 17, 17, 192)  0           batch_normalization_909[0][0]    
__________________________________________________________________________________________________
activation_951 (Activation)     (None, 17, 17, 192)  0           batch_normalization_912[0][0]    
__________________________________________________________________________________________________
block17_6_mixed (Concatenate)   (None, 17, 17, 384)  0           activation_948[0][0]             
                                                                 activation_951[0][0]             
__________________________________________________________________________________________________
block17_6_conv (Conv2D)         (None, 17, 17, 1088) 418880      block17_6_mixed[0][0]            
__________________________________________________________________________________________________
block17_6 (Lambda)              (None, 17, 17, 1088) 0           block17_5_ac[0][0]               
                                                                 block17_6_conv[0][0]             
__________________________________________________________________________________________________
block17_6_ac (Activation)       (None, 17, 17, 1088) 0           block17_6[0][0]                  
__________________________________________________________________________________________________
conv2d_954 (Conv2D)             (None, 17, 17, 128)  139264      block17_6_ac[0][0]               
__________________________________________________________________________________________________
batch_normalization_914 (BatchN (None, 17, 17, 128)  384         conv2d_954[0][0]                 
__________________________________________________________________________________________________
activation_953 (Activation)     (None, 17, 17, 128)  0           batch_normalization_914[0][0]    
__________________________________________________________________________________________________
conv2d_955 (Conv2D)             (None, 17, 17, 160)  143360      activation_953[0][0]             
__________________________________________________________________________________________________
batch_normalization_915 (BatchN (None, 17, 17, 160)  480         conv2d_955[0][0]                 
__________________________________________________________________________________________________
activation_954 (Activation)     (None, 17, 17, 160)  0           batch_normalization_915[0][0]    
__________________________________________________________________________________________________
conv2d_953 (Conv2D)             (None, 17, 17, 192)  208896      block17_6_ac[0][0]               
__________________________________________________________________________________________________
conv2d_956 (Conv2D)             (None, 17, 17, 192)  215040      activation_954[0][0]             
__________________________________________________________________________________________________
batch_normalization_913 (BatchN (None, 17, 17, 192)  576         conv2d_953[0][0]                 
__________________________________________________________________________________________________
batch_normalization_916 (BatchN (None, 17, 17, 192)  576         conv2d_956[0][0]                 
__________________________________________________________________________________________________
activation_952 (Activation)     (None, 17, 17, 192)  0           batch_normalization_913[0][0]    
__________________________________________________________________________________________________
activation_955 (Activation)     (None, 17, 17, 192)  0           batch_normalization_916[0][0]    
__________________________________________________________________________________________________
block17_7_mixed (Concatenate)   (None, 17, 17, 384)  0           activation_952[0][0]             
                                                                 activation_955[0][0]             
__________________________________________________________________________________________________
block17_7_conv (Conv2D)         (None, 17, 17, 1088) 418880      block17_7_mixed[0][0]            
__________________________________________________________________________________________________
block17_7 (Lambda)              (None, 17, 17, 1088) 0           block17_6_ac[0][0]               
                                                                 block17_7_conv[0][0]             
__________________________________________________________________________________________________
block17_7_ac (Activation)       (None, 17, 17, 1088) 0           block17_7[0][0]                  
__________________________________________________________________________________________________
conv2d_958 (Conv2D)             (None, 17, 17, 128)  139264      block17_7_ac[0][0]               
__________________________________________________________________________________________________
batch_normalization_918 (BatchN (None, 17, 17, 128)  384         conv2d_958[0][0]                 
__________________________________________________________________________________________________
activation_957 (Activation)     (None, 17, 17, 128)  0           batch_normalization_918[0][0]    
__________________________________________________________________________________________________
conv2d_959 (Conv2D)             (None, 17, 17, 160)  143360      activation_957[0][0]             
__________________________________________________________________________________________________
batch_normalization_919 (BatchN (None, 17, 17, 160)  480         conv2d_959[0][0]                 
__________________________________________________________________________________________________
activation_958 (Activation)     (None, 17, 17, 160)  0           batch_normalization_919[0][0]    
__________________________________________________________________________________________________
conv2d_957 (Conv2D)             (None, 17, 17, 192)  208896      block17_7_ac[0][0]               
__________________________________________________________________________________________________
conv2d_960 (Conv2D)             (None, 17, 17, 192)  215040      activation_958[0][0]             
__________________________________________________________________________________________________
batch_normalization_917 (BatchN (None, 17, 17, 192)  576         conv2d_957[0][0]                 
__________________________________________________________________________________________________
batch_normalization_920 (BatchN (None, 17, 17, 192)  576         conv2d_960[0][0]                 
__________________________________________________________________________________________________
activation_956 (Activation)     (None, 17, 17, 192)  0           batch_normalization_917[0][0]    
__________________________________________________________________________________________________
activation_959 (Activation)     (None, 17, 17, 192)  0           batch_normalization_920[0][0]    
__________________________________________________________________________________________________
block17_8_mixed (Concatenate)   (None, 17, 17, 384)  0           activation_956[0][0]             
                                                                 activation_959[0][0]             
__________________________________________________________________________________________________
block17_8_conv (Conv2D)         (None, 17, 17, 1088) 418880      block17_8_mixed[0][0]            
__________________________________________________________________________________________________
block17_8 (Lambda)              (None, 17, 17, 1088) 0           block17_7_ac[0][0]               
                                                                 block17_8_conv[0][0]             
__________________________________________________________________________________________________
block17_8_ac (Activation)       (None, 17, 17, 1088) 0           block17_8[0][0]                  
__________________________________________________________________________________________________
conv2d_962 (Conv2D)             (None, 17, 17, 128)  139264      block17_8_ac[0][0]               
__________________________________________________________________________________________________
batch_normalization_922 (BatchN (None, 17, 17, 128)  384         conv2d_962[0][0]                 
__________________________________________________________________________________________________
activation_961 (Activation)     (None, 17, 17, 128)  0           batch_normalization_922[0][0]    
__________________________________________________________________________________________________
conv2d_963 (Conv2D)             (None, 17, 17, 160)  143360      activation_961[0][0]             
__________________________________________________________________________________________________
batch_normalization_923 (BatchN (None, 17, 17, 160)  480         conv2d_963[0][0]                 
__________________________________________________________________________________________________
activation_962 (Activation)     (None, 17, 17, 160)  0           batch_normalization_923[0][0]    
__________________________________________________________________________________________________
conv2d_961 (Conv2D)             (None, 17, 17, 192)  208896      block17_8_ac[0][0]               
__________________________________________________________________________________________________
conv2d_964 (Conv2D)             (None, 17, 17, 192)  215040      activation_962[0][0]             
__________________________________________________________________________________________________
batch_normalization_921 (BatchN (None, 17, 17, 192)  576         conv2d_961[0][0]                 
__________________________________________________________________________________________________
batch_normalization_924 (BatchN (None, 17, 17, 192)  576         conv2d_964[0][0]                 
__________________________________________________________________________________________________
activation_960 (Activation)     (None, 17, 17, 192)  0           batch_normalization_921[0][0]    
__________________________________________________________________________________________________
activation_963 (Activation)     (None, 17, 17, 192)  0           batch_normalization_924[0][0]    
__________________________________________________________________________________________________
block17_9_mixed (Concatenate)   (None, 17, 17, 384)  0           activation_960[0][0]             
                                                                 activation_963[0][0]             
__________________________________________________________________________________________________
block17_9_conv (Conv2D)         (None, 17, 17, 1088) 418880      block17_9_mixed[0][0]            
__________________________________________________________________________________________________
block17_9 (Lambda)              (None, 17, 17, 1088) 0           block17_8_ac[0][0]               
                                                                 block17_9_conv[0][0]             
__________________________________________________________________________________________________
block17_9_ac (Activation)       (None, 17, 17, 1088) 0           block17_9[0][0]                  
__________________________________________________________________________________________________
conv2d_966 (Conv2D)             (None, 17, 17, 128)  139264      block17_9_ac[0][0]               
__________________________________________________________________________________________________
batch_normalization_926 (BatchN (None, 17, 17, 128)  384         conv2d_966[0][0]                 
__________________________________________________________________________________________________
activation_965 (Activation)     (None, 17, 17, 128)  0           batch_normalization_926[0][0]    
__________________________________________________________________________________________________
conv2d_967 (Conv2D)             (None, 17, 17, 160)  143360      activation_965[0][0]             
__________________________________________________________________________________________________
batch_normalization_927 (BatchN (None, 17, 17, 160)  480         conv2d_967[0][0]                 
__________________________________________________________________________________________________
activation_966 (Activation)     (None, 17, 17, 160)  0           batch_normalization_927[0][0]    
__________________________________________________________________________________________________
conv2d_965 (Conv2D)             (None, 17, 17, 192)  208896      block17_9_ac[0][0]               
__________________________________________________________________________________________________
conv2d_968 (Conv2D)             (None, 17, 17, 192)  215040      activation_966[0][0]             
__________________________________________________________________________________________________
batch_normalization_925 (BatchN (None, 17, 17, 192)  576         conv2d_965[0][0]                 
__________________________________________________________________________________________________
batch_normalization_928 (BatchN (None, 17, 17, 192)  576         conv2d_968[0][0]                 
__________________________________________________________________________________________________
activation_964 (Activation)     (None, 17, 17, 192)  0           batch_normalization_925[0][0]    
__________________________________________________________________________________________________
activation_967 (Activation)     (None, 17, 17, 192)  0           batch_normalization_928[0][0]    
__________________________________________________________________________________________________
block17_10_mixed (Concatenate)  (None, 17, 17, 384)  0           activation_964[0][0]             
                                                                 activation_967[0][0]             
__________________________________________________________________________________________________
block17_10_conv (Conv2D)        (None, 17, 17, 1088) 418880      block17_10_mixed[0][0]           
__________________________________________________________________________________________________
block17_10 (Lambda)             (None, 17, 17, 1088) 0           block17_9_ac[0][0]               
                                                                 block17_10_conv[0][0]            
__________________________________________________________________________________________________
block17_10_ac (Activation)      (None, 17, 17, 1088) 0           block17_10[0][0]                 
__________________________________________________________________________________________________
conv2d_970 (Conv2D)             (None, 17, 17, 128)  139264      block17_10_ac[0][0]              
__________________________________________________________________________________________________
batch_normalization_930 (BatchN (None, 17, 17, 128)  384         conv2d_970[0][0]                 
__________________________________________________________________________________________________
activation_969 (Activation)     (None, 17, 17, 128)  0           batch_normalization_930[0][0]    
__________________________________________________________________________________________________
conv2d_971 (Conv2D)             (None, 17, 17, 160)  143360      activation_969[0][0]             
__________________________________________________________________________________________________
batch_normalization_931 (BatchN (None, 17, 17, 160)  480         conv2d_971[0][0]                 
__________________________________________________________________________________________________
activation_970 (Activation)     (None, 17, 17, 160)  0           batch_normalization_931[0][0]    
__________________________________________________________________________________________________
conv2d_969 (Conv2D)             (None, 17, 17, 192)  208896      block17_10_ac[0][0]              
__________________________________________________________________________________________________
conv2d_972 (Conv2D)             (None, 17, 17, 192)  215040      activation_970[0][0]             
__________________________________________________________________________________________________
batch_normalization_929 (BatchN (None, 17, 17, 192)  576         conv2d_969[0][0]                 
__________________________________________________________________________________________________
batch_normalization_932 (BatchN (None, 17, 17, 192)  576         conv2d_972[0][0]                 
__________________________________________________________________________________________________
activation_968 (Activation)     (None, 17, 17, 192)  0           batch_normalization_929[0][0]    
__________________________________________________________________________________________________
activation_971 (Activation)     (None, 17, 17, 192)  0           batch_normalization_932[0][0]    
__________________________________________________________________________________________________
block17_11_mixed (Concatenate)  (None, 17, 17, 384)  0           activation_968[0][0]             
                                                                 activation_971[0][0]             
__________________________________________________________________________________________________
block17_11_conv (Conv2D)        (None, 17, 17, 1088) 418880      block17_11_mixed[0][0]           
__________________________________________________________________________________________________
block17_11 (Lambda)             (None, 17, 17, 1088) 0           block17_10_ac[0][0]              
                                                                 block17_11_conv[0][0]            
__________________________________________________________________________________________________
block17_11_ac (Activation)      (None, 17, 17, 1088) 0           block17_11[0][0]                 
__________________________________________________________________________________________________
conv2d_974 (Conv2D)             (None, 17, 17, 128)  139264      block17_11_ac[0][0]              
__________________________________________________________________________________________________
batch_normalization_934 (BatchN (None, 17, 17, 128)  384         conv2d_974[0][0]                 
__________________________________________________________________________________________________
activation_973 (Activation)     (None, 17, 17, 128)  0           batch_normalization_934[0][0]    
__________________________________________________________________________________________________
conv2d_975 (Conv2D)             (None, 17, 17, 160)  143360      activation_973[0][0]             
__________________________________________________________________________________________________
batch_normalization_935 (BatchN (None, 17, 17, 160)  480         conv2d_975[0][0]                 
__________________________________________________________________________________________________
activation_974 (Activation)     (None, 17, 17, 160)  0           batch_normalization_935[0][0]    
__________________________________________________________________________________________________
conv2d_973 (Conv2D)             (None, 17, 17, 192)  208896      block17_11_ac[0][0]              
__________________________________________________________________________________________________
conv2d_976 (Conv2D)             (None, 17, 17, 192)  215040      activation_974[0][0]             
__________________________________________________________________________________________________
batch_normalization_933 (BatchN (None, 17, 17, 192)  576         conv2d_973[0][0]                 
__________________________________________________________________________________________________
batch_normalization_936 (BatchN (None, 17, 17, 192)  576         conv2d_976[0][0]                 
__________________________________________________________________________________________________
activation_972 (Activation)     (None, 17, 17, 192)  0           batch_normalization_933[0][0]    
__________________________________________________________________________________________________
activation_975 (Activation)     (None, 17, 17, 192)  0           batch_normalization_936[0][0]    
__________________________________________________________________________________________________
block17_12_mixed (Concatenate)  (None, 17, 17, 384)  0           activation_972[0][0]             
                                                                 activation_975[0][0]             
__________________________________________________________________________________________________
block17_12_conv (Conv2D)        (None, 17, 17, 1088) 418880      block17_12_mixed[0][0]           
__________________________________________________________________________________________________
block17_12 (Lambda)             (None, 17, 17, 1088) 0           block17_11_ac[0][0]              
                                                                 block17_12_conv[0][0]            
__________________________________________________________________________________________________
block17_12_ac (Activation)      (None, 17, 17, 1088) 0           block17_12[0][0]                 
__________________________________________________________________________________________________
conv2d_978 (Conv2D)             (None, 17, 17, 128)  139264      block17_12_ac[0][0]              
__________________________________________________________________________________________________
batch_normalization_938 (BatchN (None, 17, 17, 128)  384         conv2d_978[0][0]                 
__________________________________________________________________________________________________
activation_977 (Activation)     (None, 17, 17, 128)  0           batch_normalization_938[0][0]    
__________________________________________________________________________________________________
conv2d_979 (Conv2D)             (None, 17, 17, 160)  143360      activation_977[0][0]             
__________________________________________________________________________________________________
batch_normalization_939 (BatchN (None, 17, 17, 160)  480         conv2d_979[0][0]                 
__________________________________________________________________________________________________
activation_978 (Activation)     (None, 17, 17, 160)  0           batch_normalization_939[0][0]    
__________________________________________________________________________________________________
conv2d_977 (Conv2D)             (None, 17, 17, 192)  208896      block17_12_ac[0][0]              
__________________________________________________________________________________________________
conv2d_980 (Conv2D)             (None, 17, 17, 192)  215040      activation_978[0][0]             
__________________________________________________________________________________________________
batch_normalization_937 (BatchN (None, 17, 17, 192)  576         conv2d_977[0][0]                 
__________________________________________________________________________________________________
batch_normalization_940 (BatchN (None, 17, 17, 192)  576         conv2d_980[0][0]                 
__________________________________________________________________________________________________
activation_976 (Activation)     (None, 17, 17, 192)  0           batch_normalization_937[0][0]    
__________________________________________________________________________________________________
activation_979 (Activation)     (None, 17, 17, 192)  0           batch_normalization_940[0][0]    
__________________________________________________________________________________________________
block17_13_mixed (Concatenate)  (None, 17, 17, 384)  0           activation_976[0][0]             
                                                                 activation_979[0][0]             
__________________________________________________________________________________________________
block17_13_conv (Conv2D)        (None, 17, 17, 1088) 418880      block17_13_mixed[0][0]           
__________________________________________________________________________________________________
block17_13 (Lambda)             (None, 17, 17, 1088) 0           block17_12_ac[0][0]              
                                                                 block17_13_conv[0][0]            
__________________________________________________________________________________________________
block17_13_ac (Activation)      (None, 17, 17, 1088) 0           block17_13[0][0]                 
__________________________________________________________________________________________________
conv2d_982 (Conv2D)             (None, 17, 17, 128)  139264      block17_13_ac[0][0]              
__________________________________________________________________________________________________
batch_normalization_942 (BatchN (None, 17, 17, 128)  384         conv2d_982[0][0]                 
__________________________________________________________________________________________________
activation_981 (Activation)     (None, 17, 17, 128)  0           batch_normalization_942[0][0]    
__________________________________________________________________________________________________
conv2d_983 (Conv2D)             (None, 17, 17, 160)  143360      activation_981[0][0]             
__________________________________________________________________________________________________
batch_normalization_943 (BatchN (None, 17, 17, 160)  480         conv2d_983[0][0]                 
__________________________________________________________________________________________________
activation_982 (Activation)     (None, 17, 17, 160)  0           batch_normalization_943[0][0]    
__________________________________________________________________________________________________
conv2d_981 (Conv2D)             (None, 17, 17, 192)  208896      block17_13_ac[0][0]              
__________________________________________________________________________________________________
conv2d_984 (Conv2D)             (None, 17, 17, 192)  215040      activation_982[0][0]             
__________________________________________________________________________________________________
batch_normalization_941 (BatchN (None, 17, 17, 192)  576         conv2d_981[0][0]                 
__________________________________________________________________________________________________
batch_normalization_944 (BatchN (None, 17, 17, 192)  576         conv2d_984[0][0]                 
__________________________________________________________________________________________________
activation_980 (Activation)     (None, 17, 17, 192)  0           batch_normalization_941[0][0]    
__________________________________________________________________________________________________
activation_983 (Activation)     (None, 17, 17, 192)  0           batch_normalization_944[0][0]    
__________________________________________________________________________________________________
block17_14_mixed (Concatenate)  (None, 17, 17, 384)  0           activation_980[0][0]             
                                                                 activation_983[0][0]             
__________________________________________________________________________________________________
block17_14_conv (Conv2D)        (None, 17, 17, 1088) 418880      block17_14_mixed[0][0]           
__________________________________________________________________________________________________
block17_14 (Lambda)             (None, 17, 17, 1088) 0           block17_13_ac[0][0]              
                                                                 block17_14_conv[0][0]            
__________________________________________________________________________________________________
block17_14_ac (Activation)      (None, 17, 17, 1088) 0           block17_14[0][0]                 
__________________________________________________________________________________________________
conv2d_986 (Conv2D)             (None, 17, 17, 128)  139264      block17_14_ac[0][0]              
__________________________________________________________________________________________________
batch_normalization_946 (BatchN (None, 17, 17, 128)  384         conv2d_986[0][0]                 
__________________________________________________________________________________________________
activation_985 (Activation)     (None, 17, 17, 128)  0           batch_normalization_946[0][0]    
__________________________________________________________________________________________________
conv2d_987 (Conv2D)             (None, 17, 17, 160)  143360      activation_985[0][0]             
__________________________________________________________________________________________________
batch_normalization_947 (BatchN (None, 17, 17, 160)  480         conv2d_987[0][0]                 
__________________________________________________________________________________________________
activation_986 (Activation)     (None, 17, 17, 160)  0           batch_normalization_947[0][0]    
__________________________________________________________________________________________________
conv2d_985 (Conv2D)             (None, 17, 17, 192)  208896      block17_14_ac[0][0]              
__________________________________________________________________________________________________
conv2d_988 (Conv2D)             (None, 17, 17, 192)  215040      activation_986[0][0]             
__________________________________________________________________________________________________
batch_normalization_945 (BatchN (None, 17, 17, 192)  576         conv2d_985[0][0]                 
__________________________________________________________________________________________________
batch_normalization_948 (BatchN (None, 17, 17, 192)  576         conv2d_988[0][0]                 
__________________________________________________________________________________________________
activation_984 (Activation)     (None, 17, 17, 192)  0           batch_normalization_945[0][0]    
__________________________________________________________________________________________________
activation_987 (Activation)     (None, 17, 17, 192)  0           batch_normalization_948[0][0]    
__________________________________________________________________________________________________
block17_15_mixed (Concatenate)  (None, 17, 17, 384)  0           activation_984[0][0]             
                                                                 activation_987[0][0]             
__________________________________________________________________________________________________
block17_15_conv (Conv2D)        (None, 17, 17, 1088) 418880      block17_15_mixed[0][0]           
__________________________________________________________________________________________________
block17_15 (Lambda)             (None, 17, 17, 1088) 0           block17_14_ac[0][0]              
                                                                 block17_15_conv[0][0]            
__________________________________________________________________________________________________
block17_15_ac (Activation)      (None, 17, 17, 1088) 0           block17_15[0][0]                 
__________________________________________________________________________________________________
conv2d_990 (Conv2D)             (None, 17, 17, 128)  139264      block17_15_ac[0][0]              
__________________________________________________________________________________________________
batch_normalization_950 (BatchN (None, 17, 17, 128)  384         conv2d_990[0][0]                 
__________________________________________________________________________________________________
activation_989 (Activation)     (None, 17, 17, 128)  0           batch_normalization_950[0][0]    
__________________________________________________________________________________________________
conv2d_991 (Conv2D)             (None, 17, 17, 160)  143360      activation_989[0][0]             
__________________________________________________________________________________________________
batch_normalization_951 (BatchN (None, 17, 17, 160)  480         conv2d_991[0][0]                 
__________________________________________________________________________________________________
activation_990 (Activation)     (None, 17, 17, 160)  0           batch_normalization_951[0][0]    
__________________________________________________________________________________________________
conv2d_989 (Conv2D)             (None, 17, 17, 192)  208896      block17_15_ac[0][0]              
__________________________________________________________________________________________________
conv2d_992 (Conv2D)             (None, 17, 17, 192)  215040      activation_990[0][0]             
__________________________________________________________________________________________________
batch_normalization_949 (BatchN (None, 17, 17, 192)  576         conv2d_989[0][0]                 
__________________________________________________________________________________________________
batch_normalization_952 (BatchN (None, 17, 17, 192)  576         conv2d_992[0][0]                 
__________________________________________________________________________________________________
activation_988 (Activation)     (None, 17, 17, 192)  0           batch_normalization_949[0][0]    
__________________________________________________________________________________________________
activation_991 (Activation)     (None, 17, 17, 192)  0           batch_normalization_952[0][0]    
__________________________________________________________________________________________________
block17_16_mixed (Concatenate)  (None, 17, 17, 384)  0           activation_988[0][0]             
                                                                 activation_991[0][0]             
__________________________________________________________________________________________________
block17_16_conv (Conv2D)        (None, 17, 17, 1088) 418880      block17_16_mixed[0][0]           
__________________________________________________________________________________________________
block17_16 (Lambda)             (None, 17, 17, 1088) 0           block17_15_ac[0][0]              
                                                                 block17_16_conv[0][0]            
__________________________________________________________________________________________________
block17_16_ac (Activation)      (None, 17, 17, 1088) 0           block17_16[0][0]                 
__________________________________________________________________________________________________
conv2d_994 (Conv2D)             (None, 17, 17, 128)  139264      block17_16_ac[0][0]              
__________________________________________________________________________________________________
batch_normalization_954 (BatchN (None, 17, 17, 128)  384         conv2d_994[0][0]                 
__________________________________________________________________________________________________
activation_993 (Activation)     (None, 17, 17, 128)  0           batch_normalization_954[0][0]    
__________________________________________________________________________________________________
conv2d_995 (Conv2D)             (None, 17, 17, 160)  143360      activation_993[0][0]             
__________________________________________________________________________________________________
batch_normalization_955 (BatchN (None, 17, 17, 160)  480         conv2d_995[0][0]                 
__________________________________________________________________________________________________
activation_994 (Activation)     (None, 17, 17, 160)  0           batch_normalization_955[0][0]    
__________________________________________________________________________________________________
conv2d_993 (Conv2D)             (None, 17, 17, 192)  208896      block17_16_ac[0][0]              
__________________________________________________________________________________________________
conv2d_996 (Conv2D)             (None, 17, 17, 192)  215040      activation_994[0][0]             
__________________________________________________________________________________________________
batch_normalization_953 (BatchN (None, 17, 17, 192)  576         conv2d_993[0][0]                 
__________________________________________________________________________________________________
batch_normalization_956 (BatchN (None, 17, 17, 192)  576         conv2d_996[0][0]                 
__________________________________________________________________________________________________
activation_992 (Activation)     (None, 17, 17, 192)  0           batch_normalization_953[0][0]    
__________________________________________________________________________________________________
activation_995 (Activation)     (None, 17, 17, 192)  0           batch_normalization_956[0][0]    
__________________________________________________________________________________________________
block17_17_mixed (Concatenate)  (None, 17, 17, 384)  0           activation_992[0][0]             
                                                                 activation_995[0][0]             
__________________________________________________________________________________________________
block17_17_conv (Conv2D)        (None, 17, 17, 1088) 418880      block17_17_mixed[0][0]           
__________________________________________________________________________________________________
block17_17 (Lambda)             (None, 17, 17, 1088) 0           block17_16_ac[0][0]              
                                                                 block17_17_conv[0][0]            
__________________________________________________________________________________________________
block17_17_ac (Activation)      (None, 17, 17, 1088) 0           block17_17[0][0]                 
__________________________________________________________________________________________________
conv2d_998 (Conv2D)             (None, 17, 17, 128)  139264      block17_17_ac[0][0]              
__________________________________________________________________________________________________
batch_normalization_958 (BatchN (None, 17, 17, 128)  384         conv2d_998[0][0]                 
__________________________________________________________________________________________________
activation_997 (Activation)     (None, 17, 17, 128)  0           batch_normalization_958[0][0]    
__________________________________________________________________________________________________
conv2d_999 (Conv2D)             (None, 17, 17, 160)  143360      activation_997[0][0]             
__________________________________________________________________________________________________
batch_normalization_959 (BatchN (None, 17, 17, 160)  480         conv2d_999[0][0]                 
__________________________________________________________________________________________________
activation_998 (Activation)     (None, 17, 17, 160)  0           batch_normalization_959[0][0]    
__________________________________________________________________________________________________
conv2d_997 (Conv2D)             (None, 17, 17, 192)  208896      block17_17_ac[0][0]              
__________________________________________________________________________________________________
conv2d_1000 (Conv2D)            (None, 17, 17, 192)  215040      activation_998[0][0]             
__________________________________________________________________________________________________
batch_normalization_957 (BatchN (None, 17, 17, 192)  576         conv2d_997[0][0]                 
__________________________________________________________________________________________________
batch_normalization_960 (BatchN (None, 17, 17, 192)  576         conv2d_1000[0][0]                
__________________________________________________________________________________________________
activation_996 (Activation)     (None, 17, 17, 192)  0           batch_normalization_957[0][0]    
__________________________________________________________________________________________________
activation_999 (Activation)     (None, 17, 17, 192)  0           batch_normalization_960[0][0]    
__________________________________________________________________________________________________
block17_18_mixed (Concatenate)  (None, 17, 17, 384)  0           activation_996[0][0]             
                                                                 activation_999[0][0]             
__________________________________________________________________________________________________
block17_18_conv (Conv2D)        (None, 17, 17, 1088) 418880      block17_18_mixed[0][0]           
__________________________________________________________________________________________________
block17_18 (Lambda)             (None, 17, 17, 1088) 0           block17_17_ac[0][0]              
                                                                 block17_18_conv[0][0]            
__________________________________________________________________________________________________
block17_18_ac (Activation)      (None, 17, 17, 1088) 0           block17_18[0][0]                 
__________________________________________________________________________________________________
conv2d_1002 (Conv2D)            (None, 17, 17, 128)  139264      block17_18_ac[0][0]              
__________________________________________________________________________________________________
batch_normalization_962 (BatchN (None, 17, 17, 128)  384         conv2d_1002[0][0]                
__________________________________________________________________________________________________
activation_1001 (Activation)    (None, 17, 17, 128)  0           batch_normalization_962[0][0]    
__________________________________________________________________________________________________
conv2d_1003 (Conv2D)            (None, 17, 17, 160)  143360      activation_1001[0][0]            
__________________________________________________________________________________________________
batch_normalization_963 (BatchN (None, 17, 17, 160)  480         conv2d_1003[0][0]                
__________________________________________________________________________________________________
activation_1002 (Activation)    (None, 17, 17, 160)  0           batch_normalization_963[0][0]    
__________________________________________________________________________________________________
conv2d_1001 (Conv2D)            (None, 17, 17, 192)  208896      block17_18_ac[0][0]              
__________________________________________________________________________________________________
conv2d_1004 (Conv2D)            (None, 17, 17, 192)  215040      activation_1002[0][0]            
__________________________________________________________________________________________________
batch_normalization_961 (BatchN (None, 17, 17, 192)  576         conv2d_1001[0][0]                
__________________________________________________________________________________________________
batch_normalization_964 (BatchN (None, 17, 17, 192)  576         conv2d_1004[0][0]                
__________________________________________________________________________________________________
activation_1000 (Activation)    (None, 17, 17, 192)  0           batch_normalization_961[0][0]    
__________________________________________________________________________________________________
activation_1003 (Activation)    (None, 17, 17, 192)  0           batch_normalization_964[0][0]    
__________________________________________________________________________________________________
block17_19_mixed (Concatenate)  (None, 17, 17, 384)  0           activation_1000[0][0]            
                                                                 activation_1003[0][0]            
__________________________________________________________________________________________________
block17_19_conv (Conv2D)        (None, 17, 17, 1088) 418880      block17_19_mixed[0][0]           
__________________________________________________________________________________________________
block17_19 (Lambda)             (None, 17, 17, 1088) 0           block17_18_ac[0][0]              
                                                                 block17_19_conv[0][0]            
__________________________________________________________________________________________________
block17_19_ac (Activation)      (None, 17, 17, 1088) 0           block17_19[0][0]                 
__________________________________________________________________________________________________
conv2d_1006 (Conv2D)            (None, 17, 17, 128)  139264      block17_19_ac[0][0]              
__________________________________________________________________________________________________
batch_normalization_966 (BatchN (None, 17, 17, 128)  384         conv2d_1006[0][0]                
__________________________________________________________________________________________________
activation_1005 (Activation)    (None, 17, 17, 128)  0           batch_normalization_966[0][0]    
__________________________________________________________________________________________________
conv2d_1007 (Conv2D)            (None, 17, 17, 160)  143360      activation_1005[0][0]            
__________________________________________________________________________________________________
batch_normalization_967 (BatchN (None, 17, 17, 160)  480         conv2d_1007[0][0]                
__________________________________________________________________________________________________
activation_1006 (Activation)    (None, 17, 17, 160)  0           batch_normalization_967[0][0]    
__________________________________________________________________________________________________
conv2d_1005 (Conv2D)            (None, 17, 17, 192)  208896      block17_19_ac[0][0]              
__________________________________________________________________________________________________
conv2d_1008 (Conv2D)            (None, 17, 17, 192)  215040      activation_1006[0][0]            
__________________________________________________________________________________________________
batch_normalization_965 (BatchN (None, 17, 17, 192)  576         conv2d_1005[0][0]                
__________________________________________________________________________________________________
batch_normalization_968 (BatchN (None, 17, 17, 192)  576         conv2d_1008[0][0]                
__________________________________________________________________________________________________
activation_1004 (Activation)    (None, 17, 17, 192)  0           batch_normalization_965[0][0]    
__________________________________________________________________________________________________
activation_1007 (Activation)    (None, 17, 17, 192)  0           batch_normalization_968[0][0]    
__________________________________________________________________________________________________
block17_20_mixed (Concatenate)  (None, 17, 17, 384)  0           activation_1004[0][0]            
                                                                 activation_1007[0][0]            
__________________________________________________________________________________________________
block17_20_conv (Conv2D)        (None, 17, 17, 1088) 418880      block17_20_mixed[0][0]           
__________________________________________________________________________________________________
block17_20 (Lambda)             (None, 17, 17, 1088) 0           block17_19_ac[0][0]              
                                                                 block17_20_conv[0][0]            
__________________________________________________________________________________________________
block17_20_ac (Activation)      (None, 17, 17, 1088) 0           block17_20[0][0]                 
__________________________________________________________________________________________________
conv2d_1013 (Conv2D)            (None, 17, 17, 256)  278528      block17_20_ac[0][0]              
__________________________________________________________________________________________________
batch_normalization_973 (BatchN (None, 17, 17, 256)  768         conv2d_1013[0][0]                
__________________________________________________________________________________________________
activation_1012 (Activation)    (None, 17, 17, 256)  0           batch_normalization_973[0][0]    
__________________________________________________________________________________________________
conv2d_1009 (Conv2D)            (None, 17, 17, 256)  278528      block17_20_ac[0][0]              
__________________________________________________________________________________________________
conv2d_1011 (Conv2D)            (None, 17, 17, 256)  278528      block17_20_ac[0][0]              
__________________________________________________________________________________________________
conv2d_1014 (Conv2D)            (None, 17, 17, 288)  663552      activation_1012[0][0]            
__________________________________________________________________________________________________
batch_normalization_969 (BatchN (None, 17, 17, 256)  768         conv2d_1009[0][0]                
__________________________________________________________________________________________________
batch_normalization_971 (BatchN (None, 17, 17, 256)  768         conv2d_1011[0][0]                
__________________________________________________________________________________________________
batch_normalization_974 (BatchN (None, 17, 17, 288)  864         conv2d_1014[0][0]                
__________________________________________________________________________________________________
activation_1008 (Activation)    (None, 17, 17, 256)  0           batch_normalization_969[0][0]    
__________________________________________________________________________________________________
activation_1010 (Activation)    (None, 17, 17, 256)  0           batch_normalization_971[0][0]    
__________________________________________________________________________________________________
activation_1013 (Activation)    (None, 17, 17, 288)  0           batch_normalization_974[0][0]    
__________________________________________________________________________________________________
conv2d_1010 (Conv2D)            (None, 8, 8, 384)    884736      activation_1008[0][0]            
__________________________________________________________________________________________________
conv2d_1012 (Conv2D)            (None, 8, 8, 288)    663552      activation_1010[0][0]            
__________________________________________________________________________________________________
conv2d_1015 (Conv2D)            (None, 8, 8, 320)    829440      activation_1013[0][0]            
__________________________________________________________________________________________________
batch_normalization_970 (BatchN (None, 8, 8, 384)    1152        conv2d_1010[0][0]                
__________________________________________________________________________________________________
batch_normalization_972 (BatchN (None, 8, 8, 288)    864         conv2d_1012[0][0]                
__________________________________________________________________________________________________
batch_normalization_975 (BatchN (None, 8, 8, 320)    960         conv2d_1015[0][0]                
__________________________________________________________________________________________________
activation_1009 (Activation)    (None, 8, 8, 384)    0           batch_normalization_970[0][0]    
__________________________________________________________________________________________________
activation_1011 (Activation)    (None, 8, 8, 288)    0           batch_normalization_972[0][0]    
__________________________________________________________________________________________________
activation_1014 (Activation)    (None, 8, 8, 320)    0           batch_normalization_975[0][0]    
__________________________________________________________________________________________________
max_pooling2d_19 (MaxPooling2D) (None, 8, 8, 1088)   0           block17_20_ac[0][0]              
__________________________________________________________________________________________________
mixed_7a (Concatenate)          (None, 8, 8, 2080)   0           activation_1009[0][0]            
                                                                 activation_1011[0][0]            
                                                                 activation_1014[0][0]            
                                                                 max_pooling2d_19[0][0]           
__________________________________________________________________________________________________
conv2d_1017 (Conv2D)            (None, 8, 8, 192)    399360      mixed_7a[0][0]                   
__________________________________________________________________________________________________
batch_normalization_977 (BatchN (None, 8, 8, 192)    576         conv2d_1017[0][0]                
__________________________________________________________________________________________________
activation_1016 (Activation)    (None, 8, 8, 192)    0           batch_normalization_977[0][0]    
__________________________________________________________________________________________________
conv2d_1018 (Conv2D)            (None, 8, 8, 224)    129024      activation_1016[0][0]            
__________________________________________________________________________________________________
batch_normalization_978 (BatchN (None, 8, 8, 224)    672         conv2d_1018[0][0]                
__________________________________________________________________________________________________
activation_1017 (Activation)    (None, 8, 8, 224)    0           batch_normalization_978[0][0]    
__________________________________________________________________________________________________
conv2d_1016 (Conv2D)            (None, 8, 8, 192)    399360      mixed_7a[0][0]                   
__________________________________________________________________________________________________
conv2d_1019 (Conv2D)            (None, 8, 8, 256)    172032      activation_1017[0][0]            
__________________________________________________________________________________________________
batch_normalization_976 (BatchN (None, 8, 8, 192)    576         conv2d_1016[0][0]                
__________________________________________________________________________________________________
batch_normalization_979 (BatchN (None, 8, 8, 256)    768         conv2d_1019[0][0]                
__________________________________________________________________________________________________
activation_1015 (Activation)    (None, 8, 8, 192)    0           batch_normalization_976[0][0]    
__________________________________________________________________________________________________
activation_1018 (Activation)    (None, 8, 8, 256)    0           batch_normalization_979[0][0]    
__________________________________________________________________________________________________
block8_1_mixed (Concatenate)    (None, 8, 8, 448)    0           activation_1015[0][0]            
                                                                 activation_1018[0][0]            
__________________________________________________________________________________________________
block8_1_conv (Conv2D)          (None, 8, 8, 2080)   933920      block8_1_mixed[0][0]             
__________________________________________________________________________________________________
block8_1 (Lambda)               (None, 8, 8, 2080)   0           mixed_7a[0][0]                   
                                                                 block8_1_conv[0][0]              
__________________________________________________________________________________________________
block8_1_ac (Activation)        (None, 8, 8, 2080)   0           block8_1[0][0]                   
__________________________________________________________________________________________________
conv2d_1021 (Conv2D)            (None, 8, 8, 192)    399360      block8_1_ac[0][0]                
__________________________________________________________________________________________________
batch_normalization_981 (BatchN (None, 8, 8, 192)    576         conv2d_1021[0][0]                
__________________________________________________________________________________________________
activation_1020 (Activation)    (None, 8, 8, 192)    0           batch_normalization_981[0][0]    
__________________________________________________________________________________________________
conv2d_1022 (Conv2D)            (None, 8, 8, 224)    129024      activation_1020[0][0]            
__________________________________________________________________________________________________
batch_normalization_982 (BatchN (None, 8, 8, 224)    672         conv2d_1022[0][0]                
__________________________________________________________________________________________________
activation_1021 (Activation)    (None, 8, 8, 224)    0           batch_normalization_982[0][0]    
__________________________________________________________________________________________________
conv2d_1020 (Conv2D)            (None, 8, 8, 192)    399360      block8_1_ac[0][0]                
__________________________________________________________________________________________________
conv2d_1023 (Conv2D)            (None, 8, 8, 256)    172032      activation_1021[0][0]            
__________________________________________________________________________________________________
batch_normalization_980 (BatchN (None, 8, 8, 192)    576         conv2d_1020[0][0]                
__________________________________________________________________________________________________
batch_normalization_983 (BatchN (None, 8, 8, 256)    768         conv2d_1023[0][0]                
__________________________________________________________________________________________________
activation_1019 (Activation)    (None, 8, 8, 192)    0           batch_normalization_980[0][0]    
__________________________________________________________________________________________________
activation_1022 (Activation)    (None, 8, 8, 256)    0           batch_normalization_983[0][0]    
__________________________________________________________________________________________________
block8_2_mixed (Concatenate)    (None, 8, 8, 448)    0           activation_1019[0][0]            
                                                                 activation_1022[0][0]            
__________________________________________________________________________________________________
block8_2_conv (Conv2D)          (None, 8, 8, 2080)   933920      block8_2_mixed[0][0]             
__________________________________________________________________________________________________
block8_2 (Lambda)               (None, 8, 8, 2080)   0           block8_1_ac[0][0]                
                                                                 block8_2_conv[0][0]              
__________________________________________________________________________________________________
block8_2_ac (Activation)        (None, 8, 8, 2080)   0           block8_2[0][0]                   
__________________________________________________________________________________________________
conv2d_1025 (Conv2D)            (None, 8, 8, 192)    399360      block8_2_ac[0][0]                
__________________________________________________________________________________________________
batch_normalization_985 (BatchN (None, 8, 8, 192)    576         conv2d_1025[0][0]                
__________________________________________________________________________________________________
activation_1024 (Activation)    (None, 8, 8, 192)    0           batch_normalization_985[0][0]    
__________________________________________________________________________________________________
conv2d_1026 (Conv2D)            (None, 8, 8, 224)    129024      activation_1024[0][0]            
__________________________________________________________________________________________________
batch_normalization_986 (BatchN (None, 8, 8, 224)    672         conv2d_1026[0][0]                
__________________________________________________________________________________________________
activation_1025 (Activation)    (None, 8, 8, 224)    0           batch_normalization_986[0][0]    
__________________________________________________________________________________________________
conv2d_1024 (Conv2D)            (None, 8, 8, 192)    399360      block8_2_ac[0][0]                
__________________________________________________________________________________________________
conv2d_1027 (Conv2D)            (None, 8, 8, 256)    172032      activation_1025[0][0]            
__________________________________________________________________________________________________
batch_normalization_984 (BatchN (None, 8, 8, 192)    576         conv2d_1024[0][0]                
__________________________________________________________________________________________________
batch_normalization_987 (BatchN (None, 8, 8, 256)    768         conv2d_1027[0][0]                
__________________________________________________________________________________________________
activation_1023 (Activation)    (None, 8, 8, 192)    0           batch_normalization_984[0][0]    
__________________________________________________________________________________________________
activation_1026 (Activation)    (None, 8, 8, 256)    0           batch_normalization_987[0][0]    
__________________________________________________________________________________________________
block8_3_mixed (Concatenate)    (None, 8, 8, 448)    0           activation_1023[0][0]            
                                                                 activation_1026[0][0]            
__________________________________________________________________________________________________
block8_3_conv (Conv2D)          (None, 8, 8, 2080)   933920      block8_3_mixed[0][0]             
__________________________________________________________________________________________________
block8_3 (Lambda)               (None, 8, 8, 2080)   0           block8_2_ac[0][0]                
                                                                 block8_3_conv[0][0]              
__________________________________________________________________________________________________
block8_3_ac (Activation)        (None, 8, 8, 2080)   0           block8_3[0][0]                   
__________________________________________________________________________________________________
conv2d_1029 (Conv2D)            (None, 8, 8, 192)    399360      block8_3_ac[0][0]                
__________________________________________________________________________________________________
batch_normalization_989 (BatchN (None, 8, 8, 192)    576         conv2d_1029[0][0]                
__________________________________________________________________________________________________
activation_1028 (Activation)    (None, 8, 8, 192)    0           batch_normalization_989[0][0]    
__________________________________________________________________________________________________
conv2d_1030 (Conv2D)            (None, 8, 8, 224)    129024      activation_1028[0][0]            
__________________________________________________________________________________________________
batch_normalization_990 (BatchN (None, 8, 8, 224)    672         conv2d_1030[0][0]                
__________________________________________________________________________________________________
activation_1029 (Activation)    (None, 8, 8, 224)    0           batch_normalization_990[0][0]    
__________________________________________________________________________________________________
conv2d_1028 (Conv2D)            (None, 8, 8, 192)    399360      block8_3_ac[0][0]                
__________________________________________________________________________________________________
conv2d_1031 (Conv2D)            (None, 8, 8, 256)    172032      activation_1029[0][0]            
__________________________________________________________________________________________________
batch_normalization_988 (BatchN (None, 8, 8, 192)    576         conv2d_1028[0][0]                
__________________________________________________________________________________________________
batch_normalization_991 (BatchN (None, 8, 8, 256)    768         conv2d_1031[0][0]                
__________________________________________________________________________________________________
activation_1027 (Activation)    (None, 8, 8, 192)    0           batch_normalization_988[0][0]    
__________________________________________________________________________________________________
activation_1030 (Activation)    (None, 8, 8, 256)    0           batch_normalization_991[0][0]    
__________________________________________________________________________________________________
block8_4_mixed (Concatenate)    (None, 8, 8, 448)    0           activation_1027[0][0]            
                                                                 activation_1030[0][0]            
__________________________________________________________________________________________________
block8_4_conv (Conv2D)          (None, 8, 8, 2080)   933920      block8_4_mixed[0][0]             
__________________________________________________________________________________________________
block8_4 (Lambda)               (None, 8, 8, 2080)   0           block8_3_ac[0][0]                
                                                                 block8_4_conv[0][0]              
__________________________________________________________________________________________________
block8_4_ac (Activation)        (None, 8, 8, 2080)   0           block8_4[0][0]                   
__________________________________________________________________________________________________
conv2d_1033 (Conv2D)            (None, 8, 8, 192)    399360      block8_4_ac[0][0]                
__________________________________________________________________________________________________
batch_normalization_993 (BatchN (None, 8, 8, 192)    576         conv2d_1033[0][0]                
__________________________________________________________________________________________________
activation_1032 (Activation)    (None, 8, 8, 192)    0           batch_normalization_993[0][0]    
__________________________________________________________________________________________________
conv2d_1034 (Conv2D)            (None, 8, 8, 224)    129024      activation_1032[0][0]            
__________________________________________________________________________________________________
batch_normalization_994 (BatchN (None, 8, 8, 224)    672         conv2d_1034[0][0]                
__________________________________________________________________________________________________
activation_1033 (Activation)    (None, 8, 8, 224)    0           batch_normalization_994[0][0]    
__________________________________________________________________________________________________
conv2d_1032 (Conv2D)            (None, 8, 8, 192)    399360      block8_4_ac[0][0]                
__________________________________________________________________________________________________
conv2d_1035 (Conv2D)            (None, 8, 8, 256)    172032      activation_1033[0][0]            
__________________________________________________________________________________________________
batch_normalization_992 (BatchN (None, 8, 8, 192)    576         conv2d_1032[0][0]                
__________________________________________________________________________________________________
batch_normalization_995 (BatchN (None, 8, 8, 256)    768         conv2d_1035[0][0]                
__________________________________________________________________________________________________
activation_1031 (Activation)    (None, 8, 8, 192)    0           batch_normalization_992[0][0]    
__________________________________________________________________________________________________
activation_1034 (Activation)    (None, 8, 8, 256)    0           batch_normalization_995[0][0]    
__________________________________________________________________________________________________
block8_5_mixed (Concatenate)    (None, 8, 8, 448)    0           activation_1031[0][0]            
                                                                 activation_1034[0][0]            
__________________________________________________________________________________________________
block8_5_conv (Conv2D)          (None, 8, 8, 2080)   933920      block8_5_mixed[0][0]             
__________________________________________________________________________________________________
block8_5 (Lambda)               (None, 8, 8, 2080)   0           block8_4_ac[0][0]                
                                                                 block8_5_conv[0][0]              
__________________________________________________________________________________________________
block8_5_ac (Activation)        (None, 8, 8, 2080)   0           block8_5[0][0]                   
__________________________________________________________________________________________________
conv2d_1037 (Conv2D)            (None, 8, 8, 192)    399360      block8_5_ac[0][0]                
__________________________________________________________________________________________________
batch_normalization_997 (BatchN (None, 8, 8, 192)    576         conv2d_1037[0][0]                
__________________________________________________________________________________________________
activation_1036 (Activation)    (None, 8, 8, 192)    0           batch_normalization_997[0][0]    
__________________________________________________________________________________________________
conv2d_1038 (Conv2D)            (None, 8, 8, 224)    129024      activation_1036[0][0]            
__________________________________________________________________________________________________
batch_normalization_998 (BatchN (None, 8, 8, 224)    672         conv2d_1038[0][0]                
__________________________________________________________________________________________________
activation_1037 (Activation)    (None, 8, 8, 224)    0           batch_normalization_998[0][0]    
__________________________________________________________________________________________________
conv2d_1036 (Conv2D)            (None, 8, 8, 192)    399360      block8_5_ac[0][0]                
__________________________________________________________________________________________________
conv2d_1039 (Conv2D)            (None, 8, 8, 256)    172032      activation_1037[0][0]            
__________________________________________________________________________________________________
batch_normalization_996 (BatchN (None, 8, 8, 192)    576         conv2d_1036[0][0]                
__________________________________________________________________________________________________
batch_normalization_999 (BatchN (None, 8, 8, 256)    768         conv2d_1039[0][0]                
__________________________________________________________________________________________________
activation_1035 (Activation)    (None, 8, 8, 192)    0           batch_normalization_996[0][0]    
__________________________________________________________________________________________________
activation_1038 (Activation)    (None, 8, 8, 256)    0           batch_normalization_999[0][0]    
__________________________________________________________________________________________________
block8_6_mixed (Concatenate)    (None, 8, 8, 448)    0           activation_1035[0][0]            
                                                                 activation_1038[0][0]            
__________________________________________________________________________________________________
block8_6_conv (Conv2D)          (None, 8, 8, 2080)   933920      block8_6_mixed[0][0]             
__________________________________________________________________________________________________
block8_6 (Lambda)               (None, 8, 8, 2080)   0           block8_5_ac[0][0]                
                                                                 block8_6_conv[0][0]              
__________________________________________________________________________________________________
block8_6_ac (Activation)        (None, 8, 8, 2080)   0           block8_6[0][0]                   
__________________________________________________________________________________________________
conv2d_1041 (Conv2D)            (None, 8, 8, 192)    399360      block8_6_ac[0][0]                
__________________________________________________________________________________________________
batch_normalization_1001 (Batch (None, 8, 8, 192)    576         conv2d_1041[0][0]                
__________________________________________________________________________________________________
activation_1040 (Activation)    (None, 8, 8, 192)    0           batch_normalization_1001[0][0]   
__________________________________________________________________________________________________
conv2d_1042 (Conv2D)            (None, 8, 8, 224)    129024      activation_1040[0][0]            
__________________________________________________________________________________________________
batch_normalization_1002 (Batch (None, 8, 8, 224)    672         conv2d_1042[0][0]                
__________________________________________________________________________________________________
activation_1041 (Activation)    (None, 8, 8, 224)    0           batch_normalization_1002[0][0]   
__________________________________________________________________________________________________
conv2d_1040 (Conv2D)            (None, 8, 8, 192)    399360      block8_6_ac[0][0]                
__________________________________________________________________________________________________
conv2d_1043 (Conv2D)            (None, 8, 8, 256)    172032      activation_1041[0][0]            
__________________________________________________________________________________________________
batch_normalization_1000 (Batch (None, 8, 8, 192)    576         conv2d_1040[0][0]                
__________________________________________________________________________________________________
batch_normalization_1003 (Batch (None, 8, 8, 256)    768         conv2d_1043[0][0]                
__________________________________________________________________________________________________
activation_1039 (Activation)    (None, 8, 8, 192)    0           batch_normalization_1000[0][0]   
__________________________________________________________________________________________________
activation_1042 (Activation)    (None, 8, 8, 256)    0           batch_normalization_1003[0][0]   
__________________________________________________________________________________________________
block8_7_mixed (Concatenate)    (None, 8, 8, 448)    0           activation_1039[0][0]            
                                                                 activation_1042[0][0]            
__________________________________________________________________________________________________
block8_7_conv (Conv2D)          (None, 8, 8, 2080)   933920      block8_7_mixed[0][0]             
__________________________________________________________________________________________________
block8_7 (Lambda)               (None, 8, 8, 2080)   0           block8_6_ac[0][0]                
                                                                 block8_7_conv[0][0]              
__________________________________________________________________________________________________
block8_7_ac (Activation)        (None, 8, 8, 2080)   0           block8_7[0][0]                   
__________________________________________________________________________________________________
conv2d_1045 (Conv2D)            (None, 8, 8, 192)    399360      block8_7_ac[0][0]                
__________________________________________________________________________________________________
batch_normalization_1005 (Batch (None, 8, 8, 192)    576         conv2d_1045[0][0]                
__________________________________________________________________________________________________
activation_1044 (Activation)    (None, 8, 8, 192)    0           batch_normalization_1005[0][0]   
__________________________________________________________________________________________________
conv2d_1046 (Conv2D)            (None, 8, 8, 224)    129024      activation_1044[0][0]            
__________________________________________________________________________________________________
batch_normalization_1006 (Batch (None, 8, 8, 224)    672         conv2d_1046[0][0]                
__________________________________________________________________________________________________
activation_1045 (Activation)    (None, 8, 8, 224)    0           batch_normalization_1006[0][0]   
__________________________________________________________________________________________________
conv2d_1044 (Conv2D)            (None, 8, 8, 192)    399360      block8_7_ac[0][0]                
__________________________________________________________________________________________________
conv2d_1047 (Conv2D)            (None, 8, 8, 256)    172032      activation_1045[0][0]            
__________________________________________________________________________________________________
batch_normalization_1004 (Batch (None, 8, 8, 192)    576         conv2d_1044[0][0]                
__________________________________________________________________________________________________
batch_normalization_1007 (Batch (None, 8, 8, 256)    768         conv2d_1047[0][0]                
__________________________________________________________________________________________________
activation_1043 (Activation)    (None, 8, 8, 192)    0           batch_normalization_1004[0][0]   
__________________________________________________________________________________________________
activation_1046 (Activation)    (None, 8, 8, 256)    0           batch_normalization_1007[0][0]   
__________________________________________________________________________________________________
block8_8_mixed (Concatenate)    (None, 8, 8, 448)    0           activation_1043[0][0]            
                                                                 activation_1046[0][0]            
__________________________________________________________________________________________________
block8_8_conv (Conv2D)          (None, 8, 8, 2080)   933920      block8_8_mixed[0][0]             
__________________________________________________________________________________________________
block8_8 (Lambda)               (None, 8, 8, 2080)   0           block8_7_ac[0][0]                
                                                                 block8_8_conv[0][0]              
__________________________________________________________________________________________________
block8_8_ac (Activation)        (None, 8, 8, 2080)   0           block8_8[0][0]                   
__________________________________________________________________________________________________
conv2d_1049 (Conv2D)            (None, 8, 8, 192)    399360      block8_8_ac[0][0]                
__________________________________________________________________________________________________
batch_normalization_1009 (Batch (None, 8, 8, 192)    576         conv2d_1049[0][0]                
__________________________________________________________________________________________________
activation_1048 (Activation)    (None, 8, 8, 192)    0           batch_normalization_1009[0][0]   
__________________________________________________________________________________________________
conv2d_1050 (Conv2D)            (None, 8, 8, 224)    129024      activation_1048[0][0]            
__________________________________________________________________________________________________
batch_normalization_1010 (Batch (None, 8, 8, 224)    672         conv2d_1050[0][0]                
__________________________________________________________________________________________________
activation_1049 (Activation)    (None, 8, 8, 224)    0           batch_normalization_1010[0][0]   
__________________________________________________________________________________________________
conv2d_1048 (Conv2D)            (None, 8, 8, 192)    399360      block8_8_ac[0][0]                
__________________________________________________________________________________________________
conv2d_1051 (Conv2D)            (None, 8, 8, 256)    172032      activation_1049[0][0]            
__________________________________________________________________________________________________
batch_normalization_1008 (Batch (None, 8, 8, 192)    576         conv2d_1048[0][0]                
__________________________________________________________________________________________________
batch_normalization_1011 (Batch (None, 8, 8, 256)    768         conv2d_1051[0][0]                
__________________________________________________________________________________________________
activation_1047 (Activation)    (None, 8, 8, 192)    0           batch_normalization_1008[0][0]   
__________________________________________________________________________________________________
activation_1050 (Activation)    (None, 8, 8, 256)    0           batch_normalization_1011[0][0]   
__________________________________________________________________________________________________
block8_9_mixed (Concatenate)    (None, 8, 8, 448)    0           activation_1047[0][0]            
                                                                 activation_1050[0][0]            
__________________________________________________________________________________________________
block8_9_conv (Conv2D)          (None, 8, 8, 2080)   933920      block8_9_mixed[0][0]             
__________________________________________________________________________________________________
block8_9 (Lambda)               (None, 8, 8, 2080)   0           block8_8_ac[0][0]                
                                                                 block8_9_conv[0][0]              
__________________________________________________________________________________________________
block8_9_ac (Activation)        (None, 8, 8, 2080)   0           block8_9[0][0]                   
__________________________________________________________________________________________________
conv2d_1053 (Conv2D)            (None, 8, 8, 192)    399360      block8_9_ac[0][0]                
__________________________________________________________________________________________________
batch_normalization_1013 (Batch (None, 8, 8, 192)    576         conv2d_1053[0][0]                
__________________________________________________________________________________________________
activation_1052 (Activation)    (None, 8, 8, 192)    0           batch_normalization_1013[0][0]   
__________________________________________________________________________________________________
conv2d_1054 (Conv2D)            (None, 8, 8, 224)    129024      activation_1052[0][0]            
__________________________________________________________________________________________________
batch_normalization_1014 (Batch (None, 8, 8, 224)    672         conv2d_1054[0][0]                
__________________________________________________________________________________________________
activation_1053 (Activation)    (None, 8, 8, 224)    0           batch_normalization_1014[0][0]   
__________________________________________________________________________________________________
conv2d_1052 (Conv2D)            (None, 8, 8, 192)    399360      block8_9_ac[0][0]                
__________________________________________________________________________________________________
conv2d_1055 (Conv2D)            (None, 8, 8, 256)    172032      activation_1053[0][0]            
__________________________________________________________________________________________________
batch_normalization_1012 (Batch (None, 8, 8, 192)    576         conv2d_1052[0][0]                
__________________________________________________________________________________________________
batch_normalization_1015 (Batch (None, 8, 8, 256)    768         conv2d_1055[0][0]                
__________________________________________________________________________________________________
activation_1051 (Activation)    (None, 8, 8, 192)    0           batch_normalization_1012[0][0]   
__________________________________________________________________________________________________
activation_1054 (Activation)    (None, 8, 8, 256)    0           batch_normalization_1015[0][0]   
__________________________________________________________________________________________________
block8_10_mixed (Concatenate)   (None, 8, 8, 448)    0           activation_1051[0][0]            
                                                                 activation_1054[0][0]            
__________________________________________________________________________________________________
block8_10_conv (Conv2D)         (None, 8, 8, 2080)   933920      block8_10_mixed[0][0]            
__________________________________________________________________________________________________
block8_10 (Lambda)              (None, 8, 8, 2080)   0           block8_9_ac[0][0]                
                                                                 block8_10_conv[0][0]             
__________________________________________________________________________________________________
conv_7b (Conv2D)                (None, 8, 8, 1536)   3194880     block8_10[0][0]                  
__________________________________________________________________________________________________
conv_7b_bn (BatchNormalization) (None, 8, 8, 1536)   4608        conv_7b[0][0]                    
__________________________________________________________________________________________________
conv_7b_ac (Activation)         (None, 8, 8, 1536)   0           conv_7b_bn[0][0]                 
__________________________________________________________________________________________________
avg_pool (GlobalAveragePooling2 (None, 1536)         0           conv_7b_ac[0][0]                 
__________________________________________________________________________________________________
predictions (Dense)             (None, 150)          230550      avg_pool[0][0]                   
==================================================================================================
Total params: 54,567,286
Trainable params: 54,506,742
Non-trainable params: 60,544
__________________________________________________________________________________________________
